<?xml version="1.0"?>
<net name="Model from PaddlePaddle." version="11">
	<layers>
		<layer id="0" name="x" type="Parameter" version="opset1">
			<data shape="?,3,48,?" element_type="f32" />
			<rt_info>
				<attribute name="old_api_map_element_type" version="0" value="f16" />
			</rt_info>
			<output>
				<port id="0" precision="FP32" names="x">
					<dim>-1</dim>
					<dim>3</dim>
					<dim>48</dim>
					<dim>-1</dim>
				</port>
			</output>
		</layer>
		<layer id="1" name="Multiply_8607_compressed" type="Const" version="opset1">
			<data element_type="f16" shape="16, 3, 3, 3" offset="0" size="864" />
			<output>
				<port id="0" precision="FP16">
					<dim>16</dim>
					<dim>3</dim>
					<dim>3</dim>
					<dim>3</dim>
				</port>
			</output>
		</layer>
		<layer id="2" name="Multiply_8607" type="Convert" version="opset1">
			<data destination_type="f32" />
			<rt_info>
				<attribute name="decompression" version="0" />
			</rt_info>
			<input>
				<port id="0" precision="FP16">
					<dim>16</dim>
					<dim>3</dim>
					<dim>3</dim>
					<dim>3</dim>
				</port>
			</input>
			<output>
				<port id="1" precision="FP32">
					<dim>16</dim>
					<dim>3</dim>
					<dim>3</dim>
					<dim>3</dim>
				</port>
			</output>
		</layer>
		<layer id="3" name="Multiply_8298" type="Convolution" version="opset1">
			<data strides="2, 2" dilations="1, 1" pads_begin="1, 1" pads_end="1, 1" auto_pad="explicit" />
			<input>
				<port id="0" precision="FP32">
					<dim>-1</dim>
					<dim>3</dim>
					<dim>48</dim>
					<dim>-1</dim>
				</port>
				<port id="1" precision="FP32">
					<dim>16</dim>
					<dim>3</dim>
					<dim>3</dim>
					<dim>3</dim>
				</port>
			</input>
			<output>
				<port id="2" precision="FP32">
					<dim>-1</dim>
					<dim>16</dim>
					<dim>24</dim>
					<dim>-1</dim>
				</port>
			</output>
		</layer>
		<layer id="4" name="Constant_8303_compressed" type="Const" version="opset1">
			<data element_type="f16" shape="1, 16, 1, 1" offset="864" size="32" />
			<output>
				<port id="0" precision="FP16">
					<dim>1</dim>
					<dim>16</dim>
					<dim>1</dim>
					<dim>1</dim>
				</port>
			</output>
		</layer>
		<layer id="5" name="Constant_8303" type="Convert" version="opset1">
			<data destination_type="f32" />
			<rt_info>
				<attribute name="decompression" version="0" />
			</rt_info>
			<input>
				<port id="0" precision="FP16">
					<dim>1</dim>
					<dim>16</dim>
					<dim>1</dim>
					<dim>1</dim>
				</port>
			</input>
			<output>
				<port id="1" precision="FP32">
					<dim>1</dim>
					<dim>16</dim>
					<dim>1</dim>
					<dim>1</dim>
				</port>
			</output>
		</layer>
		<layer id="6" name="p2o.BatchNormalization.0" type="Add" version="opset1">
			<data auto_broadcast="numpy" />
			<input>
				<port id="0" precision="FP32">
					<dim>-1</dim>
					<dim>16</dim>
					<dim>24</dim>
					<dim>-1</dim>
				</port>
				<port id="1" precision="FP32">
					<dim>1</dim>
					<dim>16</dim>
					<dim>1</dim>
					<dim>1</dim>
				</port>
			</input>
			<output>
				<port id="2" precision="FP32" names="batch_norm_0.tmp_3">
					<dim>-1</dim>
					<dim>16</dim>
					<dim>24</dim>
					<dim>-1</dim>
				</port>
			</output>
		</layer>
		<layer id="7" name="HSwish_5949" type="HSwish" version="opset4">
			<input>
				<port id="0" precision="FP32">
					<dim>-1</dim>
					<dim>16</dim>
					<dim>24</dim>
					<dim>-1</dim>
				</port>
			</input>
			<output>
				<port id="1" precision="FP32">
					<dim>-1</dim>
					<dim>16</dim>
					<dim>24</dim>
					<dim>-1</dim>
				</port>
			</output>
		</layer>
		<layer id="8" name="Multiply_8616_compressed" type="Const" version="opset1">
			<data element_type="f16" shape="16, 1, 1, 3, 3" offset="896" size="288" />
			<output>
				<port id="0" precision="FP16">
					<dim>16</dim>
					<dim>1</dim>
					<dim>1</dim>
					<dim>3</dim>
					<dim>3</dim>
				</port>
			</output>
		</layer>
		<layer id="9" name="Multiply_8616" type="Convert" version="opset1">
			<data destination_type="f32" />
			<rt_info>
				<attribute name="decompression" version="0" />
			</rt_info>
			<input>
				<port id="0" precision="FP16">
					<dim>16</dim>
					<dim>1</dim>
					<dim>1</dim>
					<dim>3</dim>
					<dim>3</dim>
				</port>
			</input>
			<output>
				<port id="1" precision="FP32">
					<dim>16</dim>
					<dim>1</dim>
					<dim>1</dim>
					<dim>3</dim>
					<dim>3</dim>
				</port>
			</output>
		</layer>
		<layer id="10" name="Multiply_8308" type="GroupConvolution" version="opset1">
			<data strides="1, 1" pads_begin="1, 1" pads_end="1, 1" dilations="1, 1" auto_pad="explicit" />
			<input>
				<port id="0" precision="FP32">
					<dim>-1</dim>
					<dim>16</dim>
					<dim>24</dim>
					<dim>-1</dim>
				</port>
				<port id="1" precision="FP32">
					<dim>16</dim>
					<dim>1</dim>
					<dim>1</dim>
					<dim>3</dim>
					<dim>3</dim>
				</port>
			</input>
			<output>
				<port id="2" precision="FP32" names="depthwise_conv2d_0.tmp_0">
					<dim>-1</dim>
					<dim>16</dim>
					<dim>24</dim>
					<dim>-1</dim>
				</port>
			</output>
		</layer>
		<layer id="11" name="Constant_8313_compressed" type="Const" version="opset1">
			<data element_type="f16" shape="1, 16, 1, 1" offset="1184" size="32" />
			<output>
				<port id="0" precision="FP16">
					<dim>1</dim>
					<dim>16</dim>
					<dim>1</dim>
					<dim>1</dim>
				</port>
			</output>
		</layer>
		<layer id="12" name="Constant_8313" type="Convert" version="opset1">
			<data destination_type="f32" />
			<rt_info>
				<attribute name="decompression" version="0" />
			</rt_info>
			<input>
				<port id="0" precision="FP16">
					<dim>1</dim>
					<dim>16</dim>
					<dim>1</dim>
					<dim>1</dim>
				</port>
			</input>
			<output>
				<port id="1" precision="FP32">
					<dim>1</dim>
					<dim>16</dim>
					<dim>1</dim>
					<dim>1</dim>
				</port>
			</output>
		</layer>
		<layer id="13" name="p2o.BatchNormalization.1" type="Add" version="opset1">
			<data auto_broadcast="numpy" />
			<input>
				<port id="0" precision="FP32">
					<dim>-1</dim>
					<dim>16</dim>
					<dim>24</dim>
					<dim>-1</dim>
				</port>
				<port id="1" precision="FP32">
					<dim>1</dim>
					<dim>16</dim>
					<dim>1</dim>
					<dim>1</dim>
				</port>
			</input>
			<output>
				<port id="2" precision="FP32" names="batch_norm_1.tmp_3">
					<dim>-1</dim>
					<dim>16</dim>
					<dim>24</dim>
					<dim>-1</dim>
				</port>
			</output>
		</layer>
		<layer id="14" name="HSwish_5952" type="HSwish" version="opset4">
			<input>
				<port id="0" precision="FP32">
					<dim>-1</dim>
					<dim>16</dim>
					<dim>24</dim>
					<dim>-1</dim>
				</port>
			</input>
			<output>
				<port id="1" precision="FP32">
					<dim>-1</dim>
					<dim>16</dim>
					<dim>24</dim>
					<dim>-1</dim>
				</port>
			</output>
		</layer>
		<layer id="15" name="Multiply_8624_compressed" type="Const" version="opset1">
			<data element_type="f16" shape="32, 16, 1, 1" offset="1216" size="1024" />
			<output>
				<port id="0" precision="FP16">
					<dim>32</dim>
					<dim>16</dim>
					<dim>1</dim>
					<dim>1</dim>
				</port>
			</output>
		</layer>
		<layer id="16" name="Multiply_8624" type="Convert" version="opset1">
			<data destination_type="f32" />
			<rt_info>
				<attribute name="decompression" version="0" />
			</rt_info>
			<input>
				<port id="0" precision="FP16">
					<dim>32</dim>
					<dim>16</dim>
					<dim>1</dim>
					<dim>1</dim>
				</port>
			</input>
			<output>
				<port id="1" precision="FP32">
					<dim>32</dim>
					<dim>16</dim>
					<dim>1</dim>
					<dim>1</dim>
				</port>
			</output>
		</layer>
		<layer id="17" name="Multiply_8318" type="Convolution" version="opset1">
			<data strides="1, 1" dilations="1, 1" pads_begin="0, 0" pads_end="0, 0" auto_pad="explicit" />
			<input>
				<port id="0" precision="FP32">
					<dim>-1</dim>
					<dim>16</dim>
					<dim>24</dim>
					<dim>-1</dim>
				</port>
				<port id="1" precision="FP32">
					<dim>32</dim>
					<dim>16</dim>
					<dim>1</dim>
					<dim>1</dim>
				</port>
			</input>
			<output>
				<port id="2" precision="FP32">
					<dim>-1</dim>
					<dim>32</dim>
					<dim>24</dim>
					<dim>-1</dim>
				</port>
			</output>
		</layer>
		<layer id="18" name="Constant_8323_compressed" type="Const" version="opset1">
			<data element_type="f16" shape="1, 32, 1, 1" offset="2240" size="64" />
			<output>
				<port id="0" precision="FP16">
					<dim>1</dim>
					<dim>32</dim>
					<dim>1</dim>
					<dim>1</dim>
				</port>
			</output>
		</layer>
		<layer id="19" name="Constant_8323" type="Convert" version="opset1">
			<data destination_type="f32" />
			<rt_info>
				<attribute name="decompression" version="0" />
			</rt_info>
			<input>
				<port id="0" precision="FP16">
					<dim>1</dim>
					<dim>32</dim>
					<dim>1</dim>
					<dim>1</dim>
				</port>
			</input>
			<output>
				<port id="1" precision="FP32">
					<dim>1</dim>
					<dim>32</dim>
					<dim>1</dim>
					<dim>1</dim>
				</port>
			</output>
		</layer>
		<layer id="20" name="p2o.BatchNormalization.2" type="Add" version="opset1">
			<data auto_broadcast="numpy" />
			<input>
				<port id="0" precision="FP32">
					<dim>-1</dim>
					<dim>32</dim>
					<dim>24</dim>
					<dim>-1</dim>
				</port>
				<port id="1" precision="FP32">
					<dim>1</dim>
					<dim>32</dim>
					<dim>1</dim>
					<dim>1</dim>
				</port>
			</input>
			<output>
				<port id="2" precision="FP32" names="batch_norm_2.tmp_3">
					<dim>-1</dim>
					<dim>32</dim>
					<dim>24</dim>
					<dim>-1</dim>
				</port>
			</output>
		</layer>
		<layer id="21" name="HSwish_5955" type="HSwish" version="opset4">
			<input>
				<port id="0" precision="FP32">
					<dim>-1</dim>
					<dim>32</dim>
					<dim>24</dim>
					<dim>-1</dim>
				</port>
			</input>
			<output>
				<port id="1" precision="FP32">
					<dim>-1</dim>
					<dim>32</dim>
					<dim>24</dim>
					<dim>-1</dim>
				</port>
			</output>
		</layer>
		<layer id="22" name="Multiply_8633_compressed" type="Const" version="opset1">
			<data element_type="f16" shape="32, 1, 1, 3, 3" offset="2304" size="576" />
			<output>
				<port id="0" precision="FP16">
					<dim>32</dim>
					<dim>1</dim>
					<dim>1</dim>
					<dim>3</dim>
					<dim>3</dim>
				</port>
			</output>
		</layer>
		<layer id="23" name="Multiply_8633" type="Convert" version="opset1">
			<data destination_type="f32" />
			<rt_info>
				<attribute name="decompression" version="0" />
			</rt_info>
			<input>
				<port id="0" precision="FP16">
					<dim>32</dim>
					<dim>1</dim>
					<dim>1</dim>
					<dim>3</dim>
					<dim>3</dim>
				</port>
			</input>
			<output>
				<port id="1" precision="FP32">
					<dim>32</dim>
					<dim>1</dim>
					<dim>1</dim>
					<dim>3</dim>
					<dim>3</dim>
				</port>
			</output>
		</layer>
		<layer id="24" name="Multiply_8328" type="GroupConvolution" version="opset1">
			<data strides="1, 1" pads_begin="1, 1" pads_end="1, 1" dilations="1, 1" auto_pad="explicit" />
			<input>
				<port id="0" precision="FP32">
					<dim>-1</dim>
					<dim>32</dim>
					<dim>24</dim>
					<dim>-1</dim>
				</port>
				<port id="1" precision="FP32">
					<dim>32</dim>
					<dim>1</dim>
					<dim>1</dim>
					<dim>3</dim>
					<dim>3</dim>
				</port>
			</input>
			<output>
				<port id="2" precision="FP32" names="depthwise_conv2d_1.tmp_0">
					<dim>-1</dim>
					<dim>32</dim>
					<dim>24</dim>
					<dim>-1</dim>
				</port>
			</output>
		</layer>
		<layer id="25" name="Constant_8333_compressed" type="Const" version="opset1">
			<data element_type="f16" shape="1, 32, 1, 1" offset="2880" size="64" />
			<output>
				<port id="0" precision="FP16">
					<dim>1</dim>
					<dim>32</dim>
					<dim>1</dim>
					<dim>1</dim>
				</port>
			</output>
		</layer>
		<layer id="26" name="Constant_8333" type="Convert" version="opset1">
			<data destination_type="f32" />
			<rt_info>
				<attribute name="decompression" version="0" />
			</rt_info>
			<input>
				<port id="0" precision="FP16">
					<dim>1</dim>
					<dim>32</dim>
					<dim>1</dim>
					<dim>1</dim>
				</port>
			</input>
			<output>
				<port id="1" precision="FP32">
					<dim>1</dim>
					<dim>32</dim>
					<dim>1</dim>
					<dim>1</dim>
				</port>
			</output>
		</layer>
		<layer id="27" name="p2o.BatchNormalization.3" type="Add" version="opset1">
			<data auto_broadcast="numpy" />
			<input>
				<port id="0" precision="FP32">
					<dim>-1</dim>
					<dim>32</dim>
					<dim>24</dim>
					<dim>-1</dim>
				</port>
				<port id="1" precision="FP32">
					<dim>1</dim>
					<dim>32</dim>
					<dim>1</dim>
					<dim>1</dim>
				</port>
			</input>
			<output>
				<port id="2" precision="FP32" names="batch_norm_3.tmp_3">
					<dim>-1</dim>
					<dim>32</dim>
					<dim>24</dim>
					<dim>-1</dim>
				</port>
			</output>
		</layer>
		<layer id="28" name="HSwish_5958" type="HSwish" version="opset4">
			<input>
				<port id="0" precision="FP32">
					<dim>-1</dim>
					<dim>32</dim>
					<dim>24</dim>
					<dim>-1</dim>
				</port>
			</input>
			<output>
				<port id="1" precision="FP32">
					<dim>-1</dim>
					<dim>32</dim>
					<dim>24</dim>
					<dim>-1</dim>
				</port>
			</output>
		</layer>
		<layer id="29" name="Multiply_8641_compressed" type="Const" version="opset1">
			<data element_type="f16" shape="64, 32, 1, 1" offset="2944" size="4096" />
			<output>
				<port id="0" precision="FP16">
					<dim>64</dim>
					<dim>32</dim>
					<dim>1</dim>
					<dim>1</dim>
				</port>
			</output>
		</layer>
		<layer id="30" name="Multiply_8641" type="Convert" version="opset1">
			<data destination_type="f32" />
			<rt_info>
				<attribute name="decompression" version="0" />
			</rt_info>
			<input>
				<port id="0" precision="FP16">
					<dim>64</dim>
					<dim>32</dim>
					<dim>1</dim>
					<dim>1</dim>
				</port>
			</input>
			<output>
				<port id="1" precision="FP32">
					<dim>64</dim>
					<dim>32</dim>
					<dim>1</dim>
					<dim>1</dim>
				</port>
			</output>
		</layer>
		<layer id="31" name="Multiply_8338" type="Convolution" version="opset1">
			<data strides="1, 1" dilations="1, 1" pads_begin="0, 0" pads_end="0, 0" auto_pad="explicit" />
			<input>
				<port id="0" precision="FP32">
					<dim>-1</dim>
					<dim>32</dim>
					<dim>24</dim>
					<dim>-1</dim>
				</port>
				<port id="1" precision="FP32">
					<dim>64</dim>
					<dim>32</dim>
					<dim>1</dim>
					<dim>1</dim>
				</port>
			</input>
			<output>
				<port id="2" precision="FP32">
					<dim>-1</dim>
					<dim>64</dim>
					<dim>24</dim>
					<dim>-1</dim>
				</port>
			</output>
		</layer>
		<layer id="32" name="Constant_8343_compressed" type="Const" version="opset1">
			<data element_type="f16" shape="1, 64, 1, 1" offset="7040" size="128" />
			<output>
				<port id="0" precision="FP16">
					<dim>1</dim>
					<dim>64</dim>
					<dim>1</dim>
					<dim>1</dim>
				</port>
			</output>
		</layer>
		<layer id="33" name="Constant_8343" type="Convert" version="opset1">
			<data destination_type="f32" />
			<rt_info>
				<attribute name="decompression" version="0" />
			</rt_info>
			<input>
				<port id="0" precision="FP16">
					<dim>1</dim>
					<dim>64</dim>
					<dim>1</dim>
					<dim>1</dim>
				</port>
			</input>
			<output>
				<port id="1" precision="FP32">
					<dim>1</dim>
					<dim>64</dim>
					<dim>1</dim>
					<dim>1</dim>
				</port>
			</output>
		</layer>
		<layer id="34" name="p2o.BatchNormalization.4" type="Add" version="opset1">
			<data auto_broadcast="numpy" />
			<input>
				<port id="0" precision="FP32">
					<dim>-1</dim>
					<dim>64</dim>
					<dim>24</dim>
					<dim>-1</dim>
				</port>
				<port id="1" precision="FP32">
					<dim>1</dim>
					<dim>64</dim>
					<dim>1</dim>
					<dim>1</dim>
				</port>
			</input>
			<output>
				<port id="2" precision="FP32" names="batch_norm_4.tmp_3">
					<dim>-1</dim>
					<dim>64</dim>
					<dim>24</dim>
					<dim>-1</dim>
				</port>
			</output>
		</layer>
		<layer id="35" name="HSwish_5961" type="HSwish" version="opset4">
			<input>
				<port id="0" precision="FP32">
					<dim>-1</dim>
					<dim>64</dim>
					<dim>24</dim>
					<dim>-1</dim>
				</port>
			</input>
			<output>
				<port id="1" precision="FP32">
					<dim>-1</dim>
					<dim>64</dim>
					<dim>24</dim>
					<dim>-1</dim>
				</port>
			</output>
		</layer>
		<layer id="36" name="Multiply_8650_compressed" type="Const" version="opset1">
			<data element_type="f16" shape="64, 1, 1, 3, 3" offset="7168" size="1152" />
			<output>
				<port id="0" precision="FP16">
					<dim>64</dim>
					<dim>1</dim>
					<dim>1</dim>
					<dim>3</dim>
					<dim>3</dim>
				</port>
			</output>
		</layer>
		<layer id="37" name="Multiply_8650" type="Convert" version="opset1">
			<data destination_type="f32" />
			<rt_info>
				<attribute name="decompression" version="0" />
			</rt_info>
			<input>
				<port id="0" precision="FP16">
					<dim>64</dim>
					<dim>1</dim>
					<dim>1</dim>
					<dim>3</dim>
					<dim>3</dim>
				</port>
			</input>
			<output>
				<port id="1" precision="FP32">
					<dim>64</dim>
					<dim>1</dim>
					<dim>1</dim>
					<dim>3</dim>
					<dim>3</dim>
				</port>
			</output>
		</layer>
		<layer id="38" name="Multiply_8348" type="GroupConvolution" version="opset1">
			<data strides="1, 1" pads_begin="1, 1" pads_end="1, 1" dilations="1, 1" auto_pad="explicit" />
			<input>
				<port id="0" precision="FP32">
					<dim>-1</dim>
					<dim>64</dim>
					<dim>24</dim>
					<dim>-1</dim>
				</port>
				<port id="1" precision="FP32">
					<dim>64</dim>
					<dim>1</dim>
					<dim>1</dim>
					<dim>3</dim>
					<dim>3</dim>
				</port>
			</input>
			<output>
				<port id="2" precision="FP32" names="depthwise_conv2d_2.tmp_0">
					<dim>-1</dim>
					<dim>64</dim>
					<dim>24</dim>
					<dim>-1</dim>
				</port>
			</output>
		</layer>
		<layer id="39" name="Constant_8353_compressed" type="Const" version="opset1">
			<data element_type="f16" shape="1, 64, 1, 1" offset="8320" size="128" />
			<output>
				<port id="0" precision="FP16">
					<dim>1</dim>
					<dim>64</dim>
					<dim>1</dim>
					<dim>1</dim>
				</port>
			</output>
		</layer>
		<layer id="40" name="Constant_8353" type="Convert" version="opset1">
			<data destination_type="f32" />
			<rt_info>
				<attribute name="decompression" version="0" />
			</rt_info>
			<input>
				<port id="0" precision="FP16">
					<dim>1</dim>
					<dim>64</dim>
					<dim>1</dim>
					<dim>1</dim>
				</port>
			</input>
			<output>
				<port id="1" precision="FP32">
					<dim>1</dim>
					<dim>64</dim>
					<dim>1</dim>
					<dim>1</dim>
				</port>
			</output>
		</layer>
		<layer id="41" name="p2o.BatchNormalization.5" type="Add" version="opset1">
			<data auto_broadcast="numpy" />
			<input>
				<port id="0" precision="FP32">
					<dim>-1</dim>
					<dim>64</dim>
					<dim>24</dim>
					<dim>-1</dim>
				</port>
				<port id="1" precision="FP32">
					<dim>1</dim>
					<dim>64</dim>
					<dim>1</dim>
					<dim>1</dim>
				</port>
			</input>
			<output>
				<port id="2" precision="FP32" names="batch_norm_5.tmp_3">
					<dim>-1</dim>
					<dim>64</dim>
					<dim>24</dim>
					<dim>-1</dim>
				</port>
			</output>
		</layer>
		<layer id="42" name="HSwish_5964" type="HSwish" version="opset4">
			<input>
				<port id="0" precision="FP32">
					<dim>-1</dim>
					<dim>64</dim>
					<dim>24</dim>
					<dim>-1</dim>
				</port>
			</input>
			<output>
				<port id="1" precision="FP32">
					<dim>-1</dim>
					<dim>64</dim>
					<dim>24</dim>
					<dim>-1</dim>
				</port>
			</output>
		</layer>
		<layer id="43" name="Multiply_8658_compressed" type="Const" version="opset1">
			<data element_type="f16" shape="64, 64, 1, 1" offset="8448" size="8192" />
			<output>
				<port id="0" precision="FP16">
					<dim>64</dim>
					<dim>64</dim>
					<dim>1</dim>
					<dim>1</dim>
				</port>
			</output>
		</layer>
		<layer id="44" name="Multiply_8658" type="Convert" version="opset1">
			<data destination_type="f32" />
			<rt_info>
				<attribute name="decompression" version="0" />
			</rt_info>
			<input>
				<port id="0" precision="FP16">
					<dim>64</dim>
					<dim>64</dim>
					<dim>1</dim>
					<dim>1</dim>
				</port>
			</input>
			<output>
				<port id="1" precision="FP32">
					<dim>64</dim>
					<dim>64</dim>
					<dim>1</dim>
					<dim>1</dim>
				</port>
			</output>
		</layer>
		<layer id="45" name="Multiply_8358" type="Convolution" version="opset1">
			<data strides="1, 1" dilations="1, 1" pads_begin="0, 0" pads_end="0, 0" auto_pad="explicit" />
			<input>
				<port id="0" precision="FP32">
					<dim>-1</dim>
					<dim>64</dim>
					<dim>24</dim>
					<dim>-1</dim>
				</port>
				<port id="1" precision="FP32">
					<dim>64</dim>
					<dim>64</dim>
					<dim>1</dim>
					<dim>1</dim>
				</port>
			</input>
			<output>
				<port id="2" precision="FP32">
					<dim>-1</dim>
					<dim>64</dim>
					<dim>24</dim>
					<dim>-1</dim>
				</port>
			</output>
		</layer>
		<layer id="46" name="Constant_8363_compressed" type="Const" version="opset1">
			<data element_type="f16" shape="1, 64, 1, 1" offset="16640" size="128" />
			<output>
				<port id="0" precision="FP16">
					<dim>1</dim>
					<dim>64</dim>
					<dim>1</dim>
					<dim>1</dim>
				</port>
			</output>
		</layer>
		<layer id="47" name="Constant_8363" type="Convert" version="opset1">
			<data destination_type="f32" />
			<rt_info>
				<attribute name="decompression" version="0" />
			</rt_info>
			<input>
				<port id="0" precision="FP16">
					<dim>1</dim>
					<dim>64</dim>
					<dim>1</dim>
					<dim>1</dim>
				</port>
			</input>
			<output>
				<port id="1" precision="FP32">
					<dim>1</dim>
					<dim>64</dim>
					<dim>1</dim>
					<dim>1</dim>
				</port>
			</output>
		</layer>
		<layer id="48" name="p2o.BatchNormalization.6" type="Add" version="opset1">
			<data auto_broadcast="numpy" />
			<input>
				<port id="0" precision="FP32">
					<dim>-1</dim>
					<dim>64</dim>
					<dim>24</dim>
					<dim>-1</dim>
				</port>
				<port id="1" precision="FP32">
					<dim>1</dim>
					<dim>64</dim>
					<dim>1</dim>
					<dim>1</dim>
				</port>
			</input>
			<output>
				<port id="2" precision="FP32" names="batch_norm_6.tmp_3">
					<dim>-1</dim>
					<dim>64</dim>
					<dim>24</dim>
					<dim>-1</dim>
				</port>
			</output>
		</layer>
		<layer id="49" name="HSwish_5967" type="HSwish" version="opset4">
			<input>
				<port id="0" precision="FP32">
					<dim>-1</dim>
					<dim>64</dim>
					<dim>24</dim>
					<dim>-1</dim>
				</port>
			</input>
			<output>
				<port id="1" precision="FP32">
					<dim>-1</dim>
					<dim>64</dim>
					<dim>24</dim>
					<dim>-1</dim>
				</port>
			</output>
		</layer>
		<layer id="50" name="Multiply_8667_compressed" type="Const" version="opset1">
			<data element_type="f16" shape="64, 1, 1, 3, 3" offset="16768" size="1152" />
			<output>
				<port id="0" precision="FP16">
					<dim>64</dim>
					<dim>1</dim>
					<dim>1</dim>
					<dim>3</dim>
					<dim>3</dim>
				</port>
			</output>
		</layer>
		<layer id="51" name="Multiply_8667" type="Convert" version="opset1">
			<data destination_type="f32" />
			<rt_info>
				<attribute name="decompression" version="0" />
			</rt_info>
			<input>
				<port id="0" precision="FP16">
					<dim>64</dim>
					<dim>1</dim>
					<dim>1</dim>
					<dim>3</dim>
					<dim>3</dim>
				</port>
			</input>
			<output>
				<port id="1" precision="FP32">
					<dim>64</dim>
					<dim>1</dim>
					<dim>1</dim>
					<dim>3</dim>
					<dim>3</dim>
				</port>
			</output>
		</layer>
		<layer id="52" name="Multiply_8368" type="GroupConvolution" version="opset1">
			<data strides="2, 1" pads_begin="1, 1" pads_end="1, 1" dilations="1, 1" auto_pad="explicit" />
			<input>
				<port id="0" precision="FP32">
					<dim>-1</dim>
					<dim>64</dim>
					<dim>24</dim>
					<dim>-1</dim>
				</port>
				<port id="1" precision="FP32">
					<dim>64</dim>
					<dim>1</dim>
					<dim>1</dim>
					<dim>3</dim>
					<dim>3</dim>
				</port>
			</input>
			<output>
				<port id="2" precision="FP32" names="depthwise_conv2d_3.tmp_0">
					<dim>-1</dim>
					<dim>64</dim>
					<dim>12</dim>
					<dim>-1</dim>
				</port>
			</output>
		</layer>
		<layer id="53" name="Constant_8373_compressed" type="Const" version="opset1">
			<data element_type="f16" shape="1, 64, 1, 1" offset="17920" size="128" />
			<output>
				<port id="0" precision="FP16">
					<dim>1</dim>
					<dim>64</dim>
					<dim>1</dim>
					<dim>1</dim>
				</port>
			</output>
		</layer>
		<layer id="54" name="Constant_8373" type="Convert" version="opset1">
			<data destination_type="f32" />
			<rt_info>
				<attribute name="decompression" version="0" />
			</rt_info>
			<input>
				<port id="0" precision="FP16">
					<dim>1</dim>
					<dim>64</dim>
					<dim>1</dim>
					<dim>1</dim>
				</port>
			</input>
			<output>
				<port id="1" precision="FP32">
					<dim>1</dim>
					<dim>64</dim>
					<dim>1</dim>
					<dim>1</dim>
				</port>
			</output>
		</layer>
		<layer id="55" name="p2o.BatchNormalization.7" type="Add" version="opset1">
			<data auto_broadcast="numpy" />
			<input>
				<port id="0" precision="FP32">
					<dim>-1</dim>
					<dim>64</dim>
					<dim>12</dim>
					<dim>-1</dim>
				</port>
				<port id="1" precision="FP32">
					<dim>1</dim>
					<dim>64</dim>
					<dim>1</dim>
					<dim>1</dim>
				</port>
			</input>
			<output>
				<port id="2" precision="FP32" names="batch_norm_7.tmp_3">
					<dim>-1</dim>
					<dim>64</dim>
					<dim>12</dim>
					<dim>-1</dim>
				</port>
			</output>
		</layer>
		<layer id="56" name="HSwish_5970" type="HSwish" version="opset4">
			<input>
				<port id="0" precision="FP32">
					<dim>-1</dim>
					<dim>64</dim>
					<dim>12</dim>
					<dim>-1</dim>
				</port>
			</input>
			<output>
				<port id="1" precision="FP32">
					<dim>-1</dim>
					<dim>64</dim>
					<dim>12</dim>
					<dim>-1</dim>
				</port>
			</output>
		</layer>
		<layer id="57" name="Multiply_8675_compressed" type="Const" version="opset1">
			<data element_type="f16" shape="128, 64, 1, 1" offset="18048" size="16384" />
			<output>
				<port id="0" precision="FP16">
					<dim>128</dim>
					<dim>64</dim>
					<dim>1</dim>
					<dim>1</dim>
				</port>
			</output>
		</layer>
		<layer id="58" name="Multiply_8675" type="Convert" version="opset1">
			<data destination_type="f32" />
			<rt_info>
				<attribute name="decompression" version="0" />
			</rt_info>
			<input>
				<port id="0" precision="FP16">
					<dim>128</dim>
					<dim>64</dim>
					<dim>1</dim>
					<dim>1</dim>
				</port>
			</input>
			<output>
				<port id="1" precision="FP32">
					<dim>128</dim>
					<dim>64</dim>
					<dim>1</dim>
					<dim>1</dim>
				</port>
			</output>
		</layer>
		<layer id="59" name="Multiply_8378" type="Convolution" version="opset1">
			<data strides="1, 1" dilations="1, 1" pads_begin="0, 0" pads_end="0, 0" auto_pad="explicit" />
			<input>
				<port id="0" precision="FP32">
					<dim>-1</dim>
					<dim>64</dim>
					<dim>12</dim>
					<dim>-1</dim>
				</port>
				<port id="1" precision="FP32">
					<dim>128</dim>
					<dim>64</dim>
					<dim>1</dim>
					<dim>1</dim>
				</port>
			</input>
			<output>
				<port id="2" precision="FP32">
					<dim>-1</dim>
					<dim>128</dim>
					<dim>12</dim>
					<dim>-1</dim>
				</port>
			</output>
		</layer>
		<layer id="60" name="Constant_8383_compressed" type="Const" version="opset1">
			<data element_type="f16" shape="1, 128, 1, 1" offset="34432" size="256" />
			<output>
				<port id="0" precision="FP16">
					<dim>1</dim>
					<dim>128</dim>
					<dim>1</dim>
					<dim>1</dim>
				</port>
			</output>
		</layer>
		<layer id="61" name="Constant_8383" type="Convert" version="opset1">
			<data destination_type="f32" />
			<rt_info>
				<attribute name="decompression" version="0" />
			</rt_info>
			<input>
				<port id="0" precision="FP16">
					<dim>1</dim>
					<dim>128</dim>
					<dim>1</dim>
					<dim>1</dim>
				</port>
			</input>
			<output>
				<port id="1" precision="FP32">
					<dim>1</dim>
					<dim>128</dim>
					<dim>1</dim>
					<dim>1</dim>
				</port>
			</output>
		</layer>
		<layer id="62" name="p2o.BatchNormalization.8" type="Add" version="opset1">
			<data auto_broadcast="numpy" />
			<input>
				<port id="0" precision="FP32">
					<dim>-1</dim>
					<dim>128</dim>
					<dim>12</dim>
					<dim>-1</dim>
				</port>
				<port id="1" precision="FP32">
					<dim>1</dim>
					<dim>128</dim>
					<dim>1</dim>
					<dim>1</dim>
				</port>
			</input>
			<output>
				<port id="2" precision="FP32" names="batch_norm_8.tmp_3">
					<dim>-1</dim>
					<dim>128</dim>
					<dim>12</dim>
					<dim>-1</dim>
				</port>
			</output>
		</layer>
		<layer id="63" name="HSwish_5973" type="HSwish" version="opset4">
			<input>
				<port id="0" precision="FP32">
					<dim>-1</dim>
					<dim>128</dim>
					<dim>12</dim>
					<dim>-1</dim>
				</port>
			</input>
			<output>
				<port id="1" precision="FP32">
					<dim>-1</dim>
					<dim>128</dim>
					<dim>12</dim>
					<dim>-1</dim>
				</port>
			</output>
		</layer>
		<layer id="64" name="Multiply_8684_compressed" type="Const" version="opset1">
			<data element_type="f16" shape="128, 1, 1, 3, 3" offset="34688" size="2304" />
			<output>
				<port id="0" precision="FP16">
					<dim>128</dim>
					<dim>1</dim>
					<dim>1</dim>
					<dim>3</dim>
					<dim>3</dim>
				</port>
			</output>
		</layer>
		<layer id="65" name="Multiply_8684" type="Convert" version="opset1">
			<data destination_type="f32" />
			<rt_info>
				<attribute name="decompression" version="0" />
			</rt_info>
			<input>
				<port id="0" precision="FP16">
					<dim>128</dim>
					<dim>1</dim>
					<dim>1</dim>
					<dim>3</dim>
					<dim>3</dim>
				</port>
			</input>
			<output>
				<port id="1" precision="FP32">
					<dim>128</dim>
					<dim>1</dim>
					<dim>1</dim>
					<dim>3</dim>
					<dim>3</dim>
				</port>
			</output>
		</layer>
		<layer id="66" name="Multiply_8388" type="GroupConvolution" version="opset1">
			<data strides="1, 1" pads_begin="1, 1" pads_end="1, 1" dilations="1, 1" auto_pad="explicit" />
			<input>
				<port id="0" precision="FP32">
					<dim>-1</dim>
					<dim>128</dim>
					<dim>12</dim>
					<dim>-1</dim>
				</port>
				<port id="1" precision="FP32">
					<dim>128</dim>
					<dim>1</dim>
					<dim>1</dim>
					<dim>3</dim>
					<dim>3</dim>
				</port>
			</input>
			<output>
				<port id="2" precision="FP32" names="depthwise_conv2d_4.tmp_0">
					<dim>-1</dim>
					<dim>128</dim>
					<dim>12</dim>
					<dim>-1</dim>
				</port>
			</output>
		</layer>
		<layer id="67" name="Constant_8393_compressed" type="Const" version="opset1">
			<data element_type="f16" shape="1, 128, 1, 1" offset="36992" size="256" />
			<output>
				<port id="0" precision="FP16">
					<dim>1</dim>
					<dim>128</dim>
					<dim>1</dim>
					<dim>1</dim>
				</port>
			</output>
		</layer>
		<layer id="68" name="Constant_8393" type="Convert" version="opset1">
			<data destination_type="f32" />
			<rt_info>
				<attribute name="decompression" version="0" />
			</rt_info>
			<input>
				<port id="0" precision="FP16">
					<dim>1</dim>
					<dim>128</dim>
					<dim>1</dim>
					<dim>1</dim>
				</port>
			</input>
			<output>
				<port id="1" precision="FP32">
					<dim>1</dim>
					<dim>128</dim>
					<dim>1</dim>
					<dim>1</dim>
				</port>
			</output>
		</layer>
		<layer id="69" name="p2o.BatchNormalization.9" type="Add" version="opset1">
			<data auto_broadcast="numpy" />
			<input>
				<port id="0" precision="FP32">
					<dim>-1</dim>
					<dim>128</dim>
					<dim>12</dim>
					<dim>-1</dim>
				</port>
				<port id="1" precision="FP32">
					<dim>1</dim>
					<dim>128</dim>
					<dim>1</dim>
					<dim>1</dim>
				</port>
			</input>
			<output>
				<port id="2" precision="FP32" names="batch_norm_9.tmp_3">
					<dim>-1</dim>
					<dim>128</dim>
					<dim>12</dim>
					<dim>-1</dim>
				</port>
			</output>
		</layer>
		<layer id="70" name="HSwish_5976" type="HSwish" version="opset4">
			<input>
				<port id="0" precision="FP32">
					<dim>-1</dim>
					<dim>128</dim>
					<dim>12</dim>
					<dim>-1</dim>
				</port>
			</input>
			<output>
				<port id="1" precision="FP32">
					<dim>-1</dim>
					<dim>128</dim>
					<dim>12</dim>
					<dim>-1</dim>
				</port>
			</output>
		</layer>
		<layer id="71" name="Multiply_8692_compressed" type="Const" version="opset1">
			<data element_type="f16" shape="128, 128, 1, 1" offset="37248" size="32768" />
			<output>
				<port id="0" precision="FP16">
					<dim>128</dim>
					<dim>128</dim>
					<dim>1</dim>
					<dim>1</dim>
				</port>
			</output>
		</layer>
		<layer id="72" name="Multiply_8692" type="Convert" version="opset1">
			<data destination_type="f32" />
			<rt_info>
				<attribute name="decompression" version="0" />
			</rt_info>
			<input>
				<port id="0" precision="FP16">
					<dim>128</dim>
					<dim>128</dim>
					<dim>1</dim>
					<dim>1</dim>
				</port>
			</input>
			<output>
				<port id="1" precision="FP32">
					<dim>128</dim>
					<dim>128</dim>
					<dim>1</dim>
					<dim>1</dim>
				</port>
			</output>
		</layer>
		<layer id="73" name="Multiply_8398" type="Convolution" version="opset1">
			<data strides="1, 1" dilations="1, 1" pads_begin="0, 0" pads_end="0, 0" auto_pad="explicit" />
			<input>
				<port id="0" precision="FP32">
					<dim>-1</dim>
					<dim>128</dim>
					<dim>12</dim>
					<dim>-1</dim>
				</port>
				<port id="1" precision="FP32">
					<dim>128</dim>
					<dim>128</dim>
					<dim>1</dim>
					<dim>1</dim>
				</port>
			</input>
			<output>
				<port id="2" precision="FP32">
					<dim>-1</dim>
					<dim>128</dim>
					<dim>12</dim>
					<dim>-1</dim>
				</port>
			</output>
		</layer>
		<layer id="74" name="Constant_8403_compressed" type="Const" version="opset1">
			<data element_type="f16" shape="1, 128, 1, 1" offset="70016" size="256" />
			<output>
				<port id="0" precision="FP16">
					<dim>1</dim>
					<dim>128</dim>
					<dim>1</dim>
					<dim>1</dim>
				</port>
			</output>
		</layer>
		<layer id="75" name="Constant_8403" type="Convert" version="opset1">
			<data destination_type="f32" />
			<rt_info>
				<attribute name="decompression" version="0" />
			</rt_info>
			<input>
				<port id="0" precision="FP16">
					<dim>1</dim>
					<dim>128</dim>
					<dim>1</dim>
					<dim>1</dim>
				</port>
			</input>
			<output>
				<port id="1" precision="FP32">
					<dim>1</dim>
					<dim>128</dim>
					<dim>1</dim>
					<dim>1</dim>
				</port>
			</output>
		</layer>
		<layer id="76" name="p2o.BatchNormalization.10" type="Add" version="opset1">
			<data auto_broadcast="numpy" />
			<input>
				<port id="0" precision="FP32">
					<dim>-1</dim>
					<dim>128</dim>
					<dim>12</dim>
					<dim>-1</dim>
				</port>
				<port id="1" precision="FP32">
					<dim>1</dim>
					<dim>128</dim>
					<dim>1</dim>
					<dim>1</dim>
				</port>
			</input>
			<output>
				<port id="2" precision="FP32" names="batch_norm_10.tmp_3">
					<dim>-1</dim>
					<dim>128</dim>
					<dim>12</dim>
					<dim>-1</dim>
				</port>
			</output>
		</layer>
		<layer id="77" name="HSwish_5979" type="HSwish" version="opset4">
			<input>
				<port id="0" precision="FP32">
					<dim>-1</dim>
					<dim>128</dim>
					<dim>12</dim>
					<dim>-1</dim>
				</port>
			</input>
			<output>
				<port id="1" precision="FP32">
					<dim>-1</dim>
					<dim>128</dim>
					<dim>12</dim>
					<dim>-1</dim>
				</port>
			</output>
		</layer>
		<layer id="78" name="Multiply_8701_compressed" type="Const" version="opset1">
			<data element_type="f16" shape="128, 1, 1, 3, 3" offset="70272" size="2304" />
			<output>
				<port id="0" precision="FP16">
					<dim>128</dim>
					<dim>1</dim>
					<dim>1</dim>
					<dim>3</dim>
					<dim>3</dim>
				</port>
			</output>
		</layer>
		<layer id="79" name="Multiply_8701" type="Convert" version="opset1">
			<data destination_type="f32" />
			<rt_info>
				<attribute name="decompression" version="0" />
			</rt_info>
			<input>
				<port id="0" precision="FP16">
					<dim>128</dim>
					<dim>1</dim>
					<dim>1</dim>
					<dim>3</dim>
					<dim>3</dim>
				</port>
			</input>
			<output>
				<port id="1" precision="FP32">
					<dim>128</dim>
					<dim>1</dim>
					<dim>1</dim>
					<dim>3</dim>
					<dim>3</dim>
				</port>
			</output>
		</layer>
		<layer id="80" name="Multiply_8408" type="GroupConvolution" version="opset1">
			<data strides="2, 1" pads_begin="1, 1" pads_end="1, 1" dilations="1, 1" auto_pad="explicit" />
			<input>
				<port id="0" precision="FP32">
					<dim>-1</dim>
					<dim>128</dim>
					<dim>12</dim>
					<dim>-1</dim>
				</port>
				<port id="1" precision="FP32">
					<dim>128</dim>
					<dim>1</dim>
					<dim>1</dim>
					<dim>3</dim>
					<dim>3</dim>
				</port>
			</input>
			<output>
				<port id="2" precision="FP32" names="depthwise_conv2d_5.tmp_0">
					<dim>-1</dim>
					<dim>128</dim>
					<dim>6</dim>
					<dim>-1</dim>
				</port>
			</output>
		</layer>
		<layer id="81" name="Constant_8413_compressed" type="Const" version="opset1">
			<data element_type="f16" shape="1, 128, 1, 1" offset="72576" size="256" />
			<output>
				<port id="0" precision="FP16">
					<dim>1</dim>
					<dim>128</dim>
					<dim>1</dim>
					<dim>1</dim>
				</port>
			</output>
		</layer>
		<layer id="82" name="Constant_8413" type="Convert" version="opset1">
			<data destination_type="f32" />
			<rt_info>
				<attribute name="decompression" version="0" />
			</rt_info>
			<input>
				<port id="0" precision="FP16">
					<dim>1</dim>
					<dim>128</dim>
					<dim>1</dim>
					<dim>1</dim>
				</port>
			</input>
			<output>
				<port id="1" precision="FP32">
					<dim>1</dim>
					<dim>128</dim>
					<dim>1</dim>
					<dim>1</dim>
				</port>
			</output>
		</layer>
		<layer id="83" name="p2o.BatchNormalization.11" type="Add" version="opset1">
			<data auto_broadcast="numpy" />
			<input>
				<port id="0" precision="FP32">
					<dim>-1</dim>
					<dim>128</dim>
					<dim>6</dim>
					<dim>-1</dim>
				</port>
				<port id="1" precision="FP32">
					<dim>1</dim>
					<dim>128</dim>
					<dim>1</dim>
					<dim>1</dim>
				</port>
			</input>
			<output>
				<port id="2" precision="FP32" names="batch_norm_11.tmp_3">
					<dim>-1</dim>
					<dim>128</dim>
					<dim>6</dim>
					<dim>-1</dim>
				</port>
			</output>
		</layer>
		<layer id="84" name="HSwish_5982" type="HSwish" version="opset4">
			<input>
				<port id="0" precision="FP32">
					<dim>-1</dim>
					<dim>128</dim>
					<dim>6</dim>
					<dim>-1</dim>
				</port>
			</input>
			<output>
				<port id="1" precision="FP32">
					<dim>-1</dim>
					<dim>128</dim>
					<dim>6</dim>
					<dim>-1</dim>
				</port>
			</output>
		</layer>
		<layer id="85" name="Multiply_8709_compressed" type="Const" version="opset1">
			<data element_type="f16" shape="256, 128, 1, 1" offset="72832" size="65536" />
			<output>
				<port id="0" precision="FP16">
					<dim>256</dim>
					<dim>128</dim>
					<dim>1</dim>
					<dim>1</dim>
				</port>
			</output>
		</layer>
		<layer id="86" name="Multiply_8709" type="Convert" version="opset1">
			<data destination_type="f32" />
			<rt_info>
				<attribute name="decompression" version="0" />
			</rt_info>
			<input>
				<port id="0" precision="FP16">
					<dim>256</dim>
					<dim>128</dim>
					<dim>1</dim>
					<dim>1</dim>
				</port>
			</input>
			<output>
				<port id="1" precision="FP32">
					<dim>256</dim>
					<dim>128</dim>
					<dim>1</dim>
					<dim>1</dim>
				</port>
			</output>
		</layer>
		<layer id="87" name="Multiply_8418" type="Convolution" version="opset1">
			<data strides="1, 1" dilations="1, 1" pads_begin="0, 0" pads_end="0, 0" auto_pad="explicit" />
			<input>
				<port id="0" precision="FP32">
					<dim>-1</dim>
					<dim>128</dim>
					<dim>6</dim>
					<dim>-1</dim>
				</port>
				<port id="1" precision="FP32">
					<dim>256</dim>
					<dim>128</dim>
					<dim>1</dim>
					<dim>1</dim>
				</port>
			</input>
			<output>
				<port id="2" precision="FP32">
					<dim>-1</dim>
					<dim>256</dim>
					<dim>6</dim>
					<dim>-1</dim>
				</port>
			</output>
		</layer>
		<layer id="88" name="Constant_8423_compressed" type="Const" version="opset1">
			<data element_type="f16" shape="1, 256, 1, 1" offset="138368" size="512" />
			<output>
				<port id="0" precision="FP16">
					<dim>1</dim>
					<dim>256</dim>
					<dim>1</dim>
					<dim>1</dim>
				</port>
			</output>
		</layer>
		<layer id="89" name="Constant_8423" type="Convert" version="opset1">
			<data destination_type="f32" />
			<rt_info>
				<attribute name="decompression" version="0" />
			</rt_info>
			<input>
				<port id="0" precision="FP16">
					<dim>1</dim>
					<dim>256</dim>
					<dim>1</dim>
					<dim>1</dim>
				</port>
			</input>
			<output>
				<port id="1" precision="FP32">
					<dim>1</dim>
					<dim>256</dim>
					<dim>1</dim>
					<dim>1</dim>
				</port>
			</output>
		</layer>
		<layer id="90" name="p2o.BatchNormalization.12" type="Add" version="opset1">
			<data auto_broadcast="numpy" />
			<input>
				<port id="0" precision="FP32">
					<dim>-1</dim>
					<dim>256</dim>
					<dim>6</dim>
					<dim>-1</dim>
				</port>
				<port id="1" precision="FP32">
					<dim>1</dim>
					<dim>256</dim>
					<dim>1</dim>
					<dim>1</dim>
				</port>
			</input>
			<output>
				<port id="2" precision="FP32" names="batch_norm_12.tmp_3">
					<dim>-1</dim>
					<dim>256</dim>
					<dim>6</dim>
					<dim>-1</dim>
				</port>
			</output>
		</layer>
		<layer id="91" name="HSwish_5985" type="HSwish" version="opset4">
			<input>
				<port id="0" precision="FP32">
					<dim>-1</dim>
					<dim>256</dim>
					<dim>6</dim>
					<dim>-1</dim>
				</port>
			</input>
			<output>
				<port id="1" precision="FP32">
					<dim>-1</dim>
					<dim>256</dim>
					<dim>6</dim>
					<dim>-1</dim>
				</port>
			</output>
		</layer>
		<layer id="92" name="Multiply_8718_compressed" type="Const" version="opset1">
			<data element_type="f16" shape="256, 1, 1, 5, 5" offset="138880" size="12800" />
			<output>
				<port id="0" precision="FP16">
					<dim>256</dim>
					<dim>1</dim>
					<dim>1</dim>
					<dim>5</dim>
					<dim>5</dim>
				</port>
			</output>
		</layer>
		<layer id="93" name="Multiply_8718" type="Convert" version="opset1">
			<data destination_type="f32" />
			<rt_info>
				<attribute name="decompression" version="0" />
			</rt_info>
			<input>
				<port id="0" precision="FP16">
					<dim>256</dim>
					<dim>1</dim>
					<dim>1</dim>
					<dim>5</dim>
					<dim>5</dim>
				</port>
			</input>
			<output>
				<port id="1" precision="FP32">
					<dim>256</dim>
					<dim>1</dim>
					<dim>1</dim>
					<dim>5</dim>
					<dim>5</dim>
				</port>
			</output>
		</layer>
		<layer id="94" name="Multiply_8428" type="GroupConvolution" version="opset1">
			<data strides="1, 1" pads_begin="2, 2" pads_end="2, 2" dilations="1, 1" auto_pad="explicit" />
			<input>
				<port id="0" precision="FP32">
					<dim>-1</dim>
					<dim>256</dim>
					<dim>6</dim>
					<dim>-1</dim>
				</port>
				<port id="1" precision="FP32">
					<dim>256</dim>
					<dim>1</dim>
					<dim>1</dim>
					<dim>5</dim>
					<dim>5</dim>
				</port>
			</input>
			<output>
				<port id="2" precision="FP32" names="depthwise_conv2d_6.tmp_0">
					<dim>-1</dim>
					<dim>256</dim>
					<dim>6</dim>
					<dim>-1</dim>
				</port>
			</output>
		</layer>
		<layer id="95" name="Constant_8433_compressed" type="Const" version="opset1">
			<data element_type="f16" shape="1, 256, 1, 1" offset="151680" size="512" />
			<output>
				<port id="0" precision="FP16">
					<dim>1</dim>
					<dim>256</dim>
					<dim>1</dim>
					<dim>1</dim>
				</port>
			</output>
		</layer>
		<layer id="96" name="Constant_8433" type="Convert" version="opset1">
			<data destination_type="f32" />
			<rt_info>
				<attribute name="decompression" version="0" />
			</rt_info>
			<input>
				<port id="0" precision="FP16">
					<dim>1</dim>
					<dim>256</dim>
					<dim>1</dim>
					<dim>1</dim>
				</port>
			</input>
			<output>
				<port id="1" precision="FP32">
					<dim>1</dim>
					<dim>256</dim>
					<dim>1</dim>
					<dim>1</dim>
				</port>
			</output>
		</layer>
		<layer id="97" name="p2o.BatchNormalization.13" type="Add" version="opset1">
			<data auto_broadcast="numpy" />
			<input>
				<port id="0" precision="FP32">
					<dim>-1</dim>
					<dim>256</dim>
					<dim>6</dim>
					<dim>-1</dim>
				</port>
				<port id="1" precision="FP32">
					<dim>1</dim>
					<dim>256</dim>
					<dim>1</dim>
					<dim>1</dim>
				</port>
			</input>
			<output>
				<port id="2" precision="FP32" names="batch_norm_13.tmp_3">
					<dim>-1</dim>
					<dim>256</dim>
					<dim>6</dim>
					<dim>-1</dim>
				</port>
			</output>
		</layer>
		<layer id="98" name="HSwish_5988" type="HSwish" version="opset4">
			<input>
				<port id="0" precision="FP32">
					<dim>-1</dim>
					<dim>256</dim>
					<dim>6</dim>
					<dim>-1</dim>
				</port>
			</input>
			<output>
				<port id="1" precision="FP32">
					<dim>-1</dim>
					<dim>256</dim>
					<dim>6</dim>
					<dim>-1</dim>
				</port>
			</output>
		</layer>
		<layer id="99" name="Multiply_8726_compressed" type="Const" version="opset1">
			<data element_type="f16" shape="256, 256, 1, 1" offset="152192" size="131072" />
			<output>
				<port id="0" precision="FP16">
					<dim>256</dim>
					<dim>256</dim>
					<dim>1</dim>
					<dim>1</dim>
				</port>
			</output>
		</layer>
		<layer id="100" name="Multiply_8726" type="Convert" version="opset1">
			<data destination_type="f32" />
			<rt_info>
				<attribute name="decompression" version="0" />
			</rt_info>
			<input>
				<port id="0" precision="FP16">
					<dim>256</dim>
					<dim>256</dim>
					<dim>1</dim>
					<dim>1</dim>
				</port>
			</input>
			<output>
				<port id="1" precision="FP32">
					<dim>256</dim>
					<dim>256</dim>
					<dim>1</dim>
					<dim>1</dim>
				</port>
			</output>
		</layer>
		<layer id="101" name="Multiply_8438" type="Convolution" version="opset1">
			<data strides="1, 1" dilations="1, 1" pads_begin="0, 0" pads_end="0, 0" auto_pad="explicit" />
			<input>
				<port id="0" precision="FP32">
					<dim>-1</dim>
					<dim>256</dim>
					<dim>6</dim>
					<dim>-1</dim>
				</port>
				<port id="1" precision="FP32">
					<dim>256</dim>
					<dim>256</dim>
					<dim>1</dim>
					<dim>1</dim>
				</port>
			</input>
			<output>
				<port id="2" precision="FP32">
					<dim>-1</dim>
					<dim>256</dim>
					<dim>6</dim>
					<dim>-1</dim>
				</port>
			</output>
		</layer>
		<layer id="102" name="Constant_8443_compressed" type="Const" version="opset1">
			<data element_type="f16" shape="1, 256, 1, 1" offset="283264" size="512" />
			<output>
				<port id="0" precision="FP16">
					<dim>1</dim>
					<dim>256</dim>
					<dim>1</dim>
					<dim>1</dim>
				</port>
			</output>
		</layer>
		<layer id="103" name="Constant_8443" type="Convert" version="opset1">
			<data destination_type="f32" />
			<rt_info>
				<attribute name="decompression" version="0" />
			</rt_info>
			<input>
				<port id="0" precision="FP16">
					<dim>1</dim>
					<dim>256</dim>
					<dim>1</dim>
					<dim>1</dim>
				</port>
			</input>
			<output>
				<port id="1" precision="FP32">
					<dim>1</dim>
					<dim>256</dim>
					<dim>1</dim>
					<dim>1</dim>
				</port>
			</output>
		</layer>
		<layer id="104" name="p2o.BatchNormalization.14" type="Add" version="opset1">
			<data auto_broadcast="numpy" />
			<input>
				<port id="0" precision="FP32">
					<dim>-1</dim>
					<dim>256</dim>
					<dim>6</dim>
					<dim>-1</dim>
				</port>
				<port id="1" precision="FP32">
					<dim>1</dim>
					<dim>256</dim>
					<dim>1</dim>
					<dim>1</dim>
				</port>
			</input>
			<output>
				<port id="2" precision="FP32" names="batch_norm_14.tmp_3">
					<dim>-1</dim>
					<dim>256</dim>
					<dim>6</dim>
					<dim>-1</dim>
				</port>
			</output>
		</layer>
		<layer id="105" name="HSwish_5991" type="HSwish" version="opset4">
			<input>
				<port id="0" precision="FP32">
					<dim>-1</dim>
					<dim>256</dim>
					<dim>6</dim>
					<dim>-1</dim>
				</port>
			</input>
			<output>
				<port id="1" precision="FP32">
					<dim>-1</dim>
					<dim>256</dim>
					<dim>6</dim>
					<dim>-1</dim>
				</port>
			</output>
		</layer>
		<layer id="106" name="Multiply_8735_compressed" type="Const" version="opset1">
			<data element_type="f16" shape="256, 1, 1, 5, 5" offset="283776" size="12800" />
			<output>
				<port id="0" precision="FP16">
					<dim>256</dim>
					<dim>1</dim>
					<dim>1</dim>
					<dim>5</dim>
					<dim>5</dim>
				</port>
			</output>
		</layer>
		<layer id="107" name="Multiply_8735" type="Convert" version="opset1">
			<data destination_type="f32" />
			<rt_info>
				<attribute name="decompression" version="0" />
			</rt_info>
			<input>
				<port id="0" precision="FP16">
					<dim>256</dim>
					<dim>1</dim>
					<dim>1</dim>
					<dim>5</dim>
					<dim>5</dim>
				</port>
			</input>
			<output>
				<port id="1" precision="FP32">
					<dim>256</dim>
					<dim>1</dim>
					<dim>1</dim>
					<dim>5</dim>
					<dim>5</dim>
				</port>
			</output>
		</layer>
		<layer id="108" name="Multiply_8448" type="GroupConvolution" version="opset1">
			<data strides="1, 1" pads_begin="2, 2" pads_end="2, 2" dilations="1, 1" auto_pad="explicit" />
			<input>
				<port id="0" precision="FP32">
					<dim>-1</dim>
					<dim>256</dim>
					<dim>6</dim>
					<dim>-1</dim>
				</port>
				<port id="1" precision="FP32">
					<dim>256</dim>
					<dim>1</dim>
					<dim>1</dim>
					<dim>5</dim>
					<dim>5</dim>
				</port>
			</input>
			<output>
				<port id="2" precision="FP32" names="depthwise_conv2d_7.tmp_0">
					<dim>-1</dim>
					<dim>256</dim>
					<dim>6</dim>
					<dim>-1</dim>
				</port>
			</output>
		</layer>
		<layer id="109" name="Constant_8453_compressed" type="Const" version="opset1">
			<data element_type="f16" shape="1, 256, 1, 1" offset="296576" size="512" />
			<output>
				<port id="0" precision="FP16">
					<dim>1</dim>
					<dim>256</dim>
					<dim>1</dim>
					<dim>1</dim>
				</port>
			</output>
		</layer>
		<layer id="110" name="Constant_8453" type="Convert" version="opset1">
			<data destination_type="f32" />
			<rt_info>
				<attribute name="decompression" version="0" />
			</rt_info>
			<input>
				<port id="0" precision="FP16">
					<dim>1</dim>
					<dim>256</dim>
					<dim>1</dim>
					<dim>1</dim>
				</port>
			</input>
			<output>
				<port id="1" precision="FP32">
					<dim>1</dim>
					<dim>256</dim>
					<dim>1</dim>
					<dim>1</dim>
				</port>
			</output>
		</layer>
		<layer id="111" name="p2o.BatchNormalization.15" type="Add" version="opset1">
			<data auto_broadcast="numpy" />
			<input>
				<port id="0" precision="FP32">
					<dim>-1</dim>
					<dim>256</dim>
					<dim>6</dim>
					<dim>-1</dim>
				</port>
				<port id="1" precision="FP32">
					<dim>1</dim>
					<dim>256</dim>
					<dim>1</dim>
					<dim>1</dim>
				</port>
			</input>
			<output>
				<port id="2" precision="FP32" names="batch_norm_15.tmp_3">
					<dim>-1</dim>
					<dim>256</dim>
					<dim>6</dim>
					<dim>-1</dim>
				</port>
			</output>
		</layer>
		<layer id="112" name="HSwish_5994" type="HSwish" version="opset4">
			<input>
				<port id="0" precision="FP32">
					<dim>-1</dim>
					<dim>256</dim>
					<dim>6</dim>
					<dim>-1</dim>
				</port>
			</input>
			<output>
				<port id="1" precision="FP32">
					<dim>-1</dim>
					<dim>256</dim>
					<dim>6</dim>
					<dim>-1</dim>
				</port>
			</output>
		</layer>
		<layer id="113" name="Multiply_8743_compressed" type="Const" version="opset1">
			<data element_type="f16" shape="256, 256, 1, 1" offset="297088" size="131072" />
			<output>
				<port id="0" precision="FP16">
					<dim>256</dim>
					<dim>256</dim>
					<dim>1</dim>
					<dim>1</dim>
				</port>
			</output>
		</layer>
		<layer id="114" name="Multiply_8743" type="Convert" version="opset1">
			<data destination_type="f32" />
			<rt_info>
				<attribute name="decompression" version="0" />
			</rt_info>
			<input>
				<port id="0" precision="FP16">
					<dim>256</dim>
					<dim>256</dim>
					<dim>1</dim>
					<dim>1</dim>
				</port>
			</input>
			<output>
				<port id="1" precision="FP32">
					<dim>256</dim>
					<dim>256</dim>
					<dim>1</dim>
					<dim>1</dim>
				</port>
			</output>
		</layer>
		<layer id="115" name="Multiply_8458" type="Convolution" version="opset1">
			<data strides="1, 1" dilations="1, 1" pads_begin="0, 0" pads_end="0, 0" auto_pad="explicit" />
			<input>
				<port id="0" precision="FP32">
					<dim>-1</dim>
					<dim>256</dim>
					<dim>6</dim>
					<dim>-1</dim>
				</port>
				<port id="1" precision="FP32">
					<dim>256</dim>
					<dim>256</dim>
					<dim>1</dim>
					<dim>1</dim>
				</port>
			</input>
			<output>
				<port id="2" precision="FP32">
					<dim>-1</dim>
					<dim>256</dim>
					<dim>6</dim>
					<dim>-1</dim>
				</port>
			</output>
		</layer>
		<layer id="116" name="Constant_8463_compressed" type="Const" version="opset1">
			<data element_type="f16" shape="1, 256, 1, 1" offset="428160" size="512" />
			<output>
				<port id="0" precision="FP16">
					<dim>1</dim>
					<dim>256</dim>
					<dim>1</dim>
					<dim>1</dim>
				</port>
			</output>
		</layer>
		<layer id="117" name="Constant_8463" type="Convert" version="opset1">
			<data destination_type="f32" />
			<rt_info>
				<attribute name="decompression" version="0" />
			</rt_info>
			<input>
				<port id="0" precision="FP16">
					<dim>1</dim>
					<dim>256</dim>
					<dim>1</dim>
					<dim>1</dim>
				</port>
			</input>
			<output>
				<port id="1" precision="FP32">
					<dim>1</dim>
					<dim>256</dim>
					<dim>1</dim>
					<dim>1</dim>
				</port>
			</output>
		</layer>
		<layer id="118" name="p2o.BatchNormalization.16" type="Add" version="opset1">
			<data auto_broadcast="numpy" />
			<input>
				<port id="0" precision="FP32">
					<dim>-1</dim>
					<dim>256</dim>
					<dim>6</dim>
					<dim>-1</dim>
				</port>
				<port id="1" precision="FP32">
					<dim>1</dim>
					<dim>256</dim>
					<dim>1</dim>
					<dim>1</dim>
				</port>
			</input>
			<output>
				<port id="2" precision="FP32" names="batch_norm_16.tmp_3">
					<dim>-1</dim>
					<dim>256</dim>
					<dim>6</dim>
					<dim>-1</dim>
				</port>
			</output>
		</layer>
		<layer id="119" name="HSwish_5997" type="HSwish" version="opset4">
			<input>
				<port id="0" precision="FP32">
					<dim>-1</dim>
					<dim>256</dim>
					<dim>6</dim>
					<dim>-1</dim>
				</port>
			</input>
			<output>
				<port id="1" precision="FP32">
					<dim>-1</dim>
					<dim>256</dim>
					<dim>6</dim>
					<dim>-1</dim>
				</port>
			</output>
		</layer>
		<layer id="120" name="Multiply_8752_compressed" type="Const" version="opset1">
			<data element_type="f16" shape="256, 1, 1, 5, 5" offset="428672" size="12800" />
			<output>
				<port id="0" precision="FP16">
					<dim>256</dim>
					<dim>1</dim>
					<dim>1</dim>
					<dim>5</dim>
					<dim>5</dim>
				</port>
			</output>
		</layer>
		<layer id="121" name="Multiply_8752" type="Convert" version="opset1">
			<data destination_type="f32" />
			<rt_info>
				<attribute name="decompression" version="0" />
			</rt_info>
			<input>
				<port id="0" precision="FP16">
					<dim>256</dim>
					<dim>1</dim>
					<dim>1</dim>
					<dim>5</dim>
					<dim>5</dim>
				</port>
			</input>
			<output>
				<port id="1" precision="FP32">
					<dim>256</dim>
					<dim>1</dim>
					<dim>1</dim>
					<dim>5</dim>
					<dim>5</dim>
				</port>
			</output>
		</layer>
		<layer id="122" name="Multiply_8468" type="GroupConvolution" version="opset1">
			<data strides="1, 1" pads_begin="2, 2" pads_end="2, 2" dilations="1, 1" auto_pad="explicit" />
			<input>
				<port id="0" precision="FP32">
					<dim>-1</dim>
					<dim>256</dim>
					<dim>6</dim>
					<dim>-1</dim>
				</port>
				<port id="1" precision="FP32">
					<dim>256</dim>
					<dim>1</dim>
					<dim>1</dim>
					<dim>5</dim>
					<dim>5</dim>
				</port>
			</input>
			<output>
				<port id="2" precision="FP32" names="depthwise_conv2d_8.tmp_0">
					<dim>-1</dim>
					<dim>256</dim>
					<dim>6</dim>
					<dim>-1</dim>
				</port>
			</output>
		</layer>
		<layer id="123" name="Constant_8473_compressed" type="Const" version="opset1">
			<data element_type="f16" shape="1, 256, 1, 1" offset="441472" size="512" />
			<output>
				<port id="0" precision="FP16">
					<dim>1</dim>
					<dim>256</dim>
					<dim>1</dim>
					<dim>1</dim>
				</port>
			</output>
		</layer>
		<layer id="124" name="Constant_8473" type="Convert" version="opset1">
			<data destination_type="f32" />
			<rt_info>
				<attribute name="decompression" version="0" />
			</rt_info>
			<input>
				<port id="0" precision="FP16">
					<dim>1</dim>
					<dim>256</dim>
					<dim>1</dim>
					<dim>1</dim>
				</port>
			</input>
			<output>
				<port id="1" precision="FP32">
					<dim>1</dim>
					<dim>256</dim>
					<dim>1</dim>
					<dim>1</dim>
				</port>
			</output>
		</layer>
		<layer id="125" name="p2o.BatchNormalization.17" type="Add" version="opset1">
			<data auto_broadcast="numpy" />
			<input>
				<port id="0" precision="FP32">
					<dim>-1</dim>
					<dim>256</dim>
					<dim>6</dim>
					<dim>-1</dim>
				</port>
				<port id="1" precision="FP32">
					<dim>1</dim>
					<dim>256</dim>
					<dim>1</dim>
					<dim>1</dim>
				</port>
			</input>
			<output>
				<port id="2" precision="FP32" names="batch_norm_17.tmp_3">
					<dim>-1</dim>
					<dim>256</dim>
					<dim>6</dim>
					<dim>-1</dim>
				</port>
			</output>
		</layer>
		<layer id="126" name="HSwish_6000" type="HSwish" version="opset4">
			<input>
				<port id="0" precision="FP32">
					<dim>-1</dim>
					<dim>256</dim>
					<dim>6</dim>
					<dim>-1</dim>
				</port>
			</input>
			<output>
				<port id="1" precision="FP32">
					<dim>-1</dim>
					<dim>256</dim>
					<dim>6</dim>
					<dim>-1</dim>
				</port>
			</output>
		</layer>
		<layer id="127" name="Multiply_8760_compressed" type="Const" version="opset1">
			<data element_type="f16" shape="256, 256, 1, 1" offset="441984" size="131072" />
			<output>
				<port id="0" precision="FP16">
					<dim>256</dim>
					<dim>256</dim>
					<dim>1</dim>
					<dim>1</dim>
				</port>
			</output>
		</layer>
		<layer id="128" name="Multiply_8760" type="Convert" version="opset1">
			<data destination_type="f32" />
			<rt_info>
				<attribute name="decompression" version="0" />
			</rt_info>
			<input>
				<port id="0" precision="FP16">
					<dim>256</dim>
					<dim>256</dim>
					<dim>1</dim>
					<dim>1</dim>
				</port>
			</input>
			<output>
				<port id="1" precision="FP32">
					<dim>256</dim>
					<dim>256</dim>
					<dim>1</dim>
					<dim>1</dim>
				</port>
			</output>
		</layer>
		<layer id="129" name="Multiply_8478" type="Convolution" version="opset1">
			<data strides="1, 1" dilations="1, 1" pads_begin="0, 0" pads_end="0, 0" auto_pad="explicit" />
			<input>
				<port id="0" precision="FP32">
					<dim>-1</dim>
					<dim>256</dim>
					<dim>6</dim>
					<dim>-1</dim>
				</port>
				<port id="1" precision="FP32">
					<dim>256</dim>
					<dim>256</dim>
					<dim>1</dim>
					<dim>1</dim>
				</port>
			</input>
			<output>
				<port id="2" precision="FP32">
					<dim>-1</dim>
					<dim>256</dim>
					<dim>6</dim>
					<dim>-1</dim>
				</port>
			</output>
		</layer>
		<layer id="130" name="Constant_8483_compressed" type="Const" version="opset1">
			<data element_type="f16" shape="1, 256, 1, 1" offset="573056" size="512" />
			<output>
				<port id="0" precision="FP16">
					<dim>1</dim>
					<dim>256</dim>
					<dim>1</dim>
					<dim>1</dim>
				</port>
			</output>
		</layer>
		<layer id="131" name="Constant_8483" type="Convert" version="opset1">
			<data destination_type="f32" />
			<rt_info>
				<attribute name="decompression" version="0" />
			</rt_info>
			<input>
				<port id="0" precision="FP16">
					<dim>1</dim>
					<dim>256</dim>
					<dim>1</dim>
					<dim>1</dim>
				</port>
			</input>
			<output>
				<port id="1" precision="FP32">
					<dim>1</dim>
					<dim>256</dim>
					<dim>1</dim>
					<dim>1</dim>
				</port>
			</output>
		</layer>
		<layer id="132" name="p2o.BatchNormalization.18" type="Add" version="opset1">
			<data auto_broadcast="numpy" />
			<input>
				<port id="0" precision="FP32">
					<dim>-1</dim>
					<dim>256</dim>
					<dim>6</dim>
					<dim>-1</dim>
				</port>
				<port id="1" precision="FP32">
					<dim>1</dim>
					<dim>256</dim>
					<dim>1</dim>
					<dim>1</dim>
				</port>
			</input>
			<output>
				<port id="2" precision="FP32" names="batch_norm_18.tmp_3">
					<dim>-1</dim>
					<dim>256</dim>
					<dim>6</dim>
					<dim>-1</dim>
				</port>
			</output>
		</layer>
		<layer id="133" name="HSwish_6003" type="HSwish" version="opset4">
			<input>
				<port id="0" precision="FP32">
					<dim>-1</dim>
					<dim>256</dim>
					<dim>6</dim>
					<dim>-1</dim>
				</port>
			</input>
			<output>
				<port id="1" precision="FP32">
					<dim>-1</dim>
					<dim>256</dim>
					<dim>6</dim>
					<dim>-1</dim>
				</port>
			</output>
		</layer>
		<layer id="134" name="Multiply_8769_compressed" type="Const" version="opset1">
			<data element_type="f16" shape="256, 1, 1, 5, 5" offset="573568" size="12800" />
			<output>
				<port id="0" precision="FP16">
					<dim>256</dim>
					<dim>1</dim>
					<dim>1</dim>
					<dim>5</dim>
					<dim>5</dim>
				</port>
			</output>
		</layer>
		<layer id="135" name="Multiply_8769" type="Convert" version="opset1">
			<data destination_type="f32" />
			<rt_info>
				<attribute name="decompression" version="0" />
			</rt_info>
			<input>
				<port id="0" precision="FP16">
					<dim>256</dim>
					<dim>1</dim>
					<dim>1</dim>
					<dim>5</dim>
					<dim>5</dim>
				</port>
			</input>
			<output>
				<port id="1" precision="FP32">
					<dim>256</dim>
					<dim>1</dim>
					<dim>1</dim>
					<dim>5</dim>
					<dim>5</dim>
				</port>
			</output>
		</layer>
		<layer id="136" name="Multiply_8488" type="GroupConvolution" version="opset1">
			<data strides="1, 1" pads_begin="2, 2" pads_end="2, 2" dilations="1, 1" auto_pad="explicit" />
			<input>
				<port id="0" precision="FP32">
					<dim>-1</dim>
					<dim>256</dim>
					<dim>6</dim>
					<dim>-1</dim>
				</port>
				<port id="1" precision="FP32">
					<dim>256</dim>
					<dim>1</dim>
					<dim>1</dim>
					<dim>5</dim>
					<dim>5</dim>
				</port>
			</input>
			<output>
				<port id="2" precision="FP32" names="depthwise_conv2d_9.tmp_0">
					<dim>-1</dim>
					<dim>256</dim>
					<dim>6</dim>
					<dim>-1</dim>
				</port>
			</output>
		</layer>
		<layer id="137" name="Constant_8493_compressed" type="Const" version="opset1">
			<data element_type="f16" shape="1, 256, 1, 1" offset="586368" size="512" />
			<output>
				<port id="0" precision="FP16">
					<dim>1</dim>
					<dim>256</dim>
					<dim>1</dim>
					<dim>1</dim>
				</port>
			</output>
		</layer>
		<layer id="138" name="Constant_8493" type="Convert" version="opset1">
			<data destination_type="f32" />
			<rt_info>
				<attribute name="decompression" version="0" />
			</rt_info>
			<input>
				<port id="0" precision="FP16">
					<dim>1</dim>
					<dim>256</dim>
					<dim>1</dim>
					<dim>1</dim>
				</port>
			</input>
			<output>
				<port id="1" precision="FP32">
					<dim>1</dim>
					<dim>256</dim>
					<dim>1</dim>
					<dim>1</dim>
				</port>
			</output>
		</layer>
		<layer id="139" name="p2o.BatchNormalization.19" type="Add" version="opset1">
			<data auto_broadcast="numpy" />
			<input>
				<port id="0" precision="FP32">
					<dim>-1</dim>
					<dim>256</dim>
					<dim>6</dim>
					<dim>-1</dim>
				</port>
				<port id="1" precision="FP32">
					<dim>1</dim>
					<dim>256</dim>
					<dim>1</dim>
					<dim>1</dim>
				</port>
			</input>
			<output>
				<port id="2" precision="FP32" names="batch_norm_19.tmp_3">
					<dim>-1</dim>
					<dim>256</dim>
					<dim>6</dim>
					<dim>-1</dim>
				</port>
			</output>
		</layer>
		<layer id="140" name="HSwish_6006" type="HSwish" version="opset4">
			<input>
				<port id="0" precision="FP32">
					<dim>-1</dim>
					<dim>256</dim>
					<dim>6</dim>
					<dim>-1</dim>
				</port>
			</input>
			<output>
				<port id="1" precision="FP32">
					<dim>-1</dim>
					<dim>256</dim>
					<dim>6</dim>
					<dim>-1</dim>
				</port>
			</output>
		</layer>
		<layer id="141" name="Multiply_8777_compressed" type="Const" version="opset1">
			<data element_type="f16" shape="256, 256, 1, 1" offset="586880" size="131072" />
			<output>
				<port id="0" precision="FP16">
					<dim>256</dim>
					<dim>256</dim>
					<dim>1</dim>
					<dim>1</dim>
				</port>
			</output>
		</layer>
		<layer id="142" name="Multiply_8777" type="Convert" version="opset1">
			<data destination_type="f32" />
			<rt_info>
				<attribute name="decompression" version="0" />
			</rt_info>
			<input>
				<port id="0" precision="FP16">
					<dim>256</dim>
					<dim>256</dim>
					<dim>1</dim>
					<dim>1</dim>
				</port>
			</input>
			<output>
				<port id="1" precision="FP32">
					<dim>256</dim>
					<dim>256</dim>
					<dim>1</dim>
					<dim>1</dim>
				</port>
			</output>
		</layer>
		<layer id="143" name="Multiply_8498" type="Convolution" version="opset1">
			<data strides="1, 1" dilations="1, 1" pads_begin="0, 0" pads_end="0, 0" auto_pad="explicit" />
			<input>
				<port id="0" precision="FP32">
					<dim>-1</dim>
					<dim>256</dim>
					<dim>6</dim>
					<dim>-1</dim>
				</port>
				<port id="1" precision="FP32">
					<dim>256</dim>
					<dim>256</dim>
					<dim>1</dim>
					<dim>1</dim>
				</port>
			</input>
			<output>
				<port id="2" precision="FP32">
					<dim>-1</dim>
					<dim>256</dim>
					<dim>6</dim>
					<dim>-1</dim>
				</port>
			</output>
		</layer>
		<layer id="144" name="Constant_8503_compressed" type="Const" version="opset1">
			<data element_type="f16" shape="1, 256, 1, 1" offset="717952" size="512" />
			<output>
				<port id="0" precision="FP16">
					<dim>1</dim>
					<dim>256</dim>
					<dim>1</dim>
					<dim>1</dim>
				</port>
			</output>
		</layer>
		<layer id="145" name="Constant_8503" type="Convert" version="opset1">
			<data destination_type="f32" />
			<rt_info>
				<attribute name="decompression" version="0" />
			</rt_info>
			<input>
				<port id="0" precision="FP16">
					<dim>1</dim>
					<dim>256</dim>
					<dim>1</dim>
					<dim>1</dim>
				</port>
			</input>
			<output>
				<port id="1" precision="FP32">
					<dim>1</dim>
					<dim>256</dim>
					<dim>1</dim>
					<dim>1</dim>
				</port>
			</output>
		</layer>
		<layer id="146" name="p2o.BatchNormalization.20" type="Add" version="opset1">
			<data auto_broadcast="numpy" />
			<input>
				<port id="0" precision="FP32">
					<dim>-1</dim>
					<dim>256</dim>
					<dim>6</dim>
					<dim>-1</dim>
				</port>
				<port id="1" precision="FP32">
					<dim>1</dim>
					<dim>256</dim>
					<dim>1</dim>
					<dim>1</dim>
				</port>
			</input>
			<output>
				<port id="2" precision="FP32" names="batch_norm_20.tmp_3">
					<dim>-1</dim>
					<dim>256</dim>
					<dim>6</dim>
					<dim>-1</dim>
				</port>
			</output>
		</layer>
		<layer id="147" name="HSwish_6009" type="HSwish" version="opset4">
			<input>
				<port id="0" precision="FP32">
					<dim>-1</dim>
					<dim>256</dim>
					<dim>6</dim>
					<dim>-1</dim>
				</port>
			</input>
			<output>
				<port id="1" precision="FP32">
					<dim>-1</dim>
					<dim>256</dim>
					<dim>6</dim>
					<dim>-1</dim>
				</port>
			</output>
		</layer>
		<layer id="148" name="Multiply_8786_compressed" type="Const" version="opset1">
			<data element_type="f16" shape="256, 1, 1, 5, 5" offset="718464" size="12800" />
			<output>
				<port id="0" precision="FP16">
					<dim>256</dim>
					<dim>1</dim>
					<dim>1</dim>
					<dim>5</dim>
					<dim>5</dim>
				</port>
			</output>
		</layer>
		<layer id="149" name="Multiply_8786" type="Convert" version="opset1">
			<data destination_type="f32" />
			<rt_info>
				<attribute name="decompression" version="0" />
			</rt_info>
			<input>
				<port id="0" precision="FP16">
					<dim>256</dim>
					<dim>1</dim>
					<dim>1</dim>
					<dim>5</dim>
					<dim>5</dim>
				</port>
			</input>
			<output>
				<port id="1" precision="FP32">
					<dim>256</dim>
					<dim>1</dim>
					<dim>1</dim>
					<dim>5</dim>
					<dim>5</dim>
				</port>
			</output>
		</layer>
		<layer id="150" name="Multiply_8508" type="GroupConvolution" version="opset1">
			<data strides="1, 1" pads_begin="2, 2" pads_end="2, 2" dilations="1, 1" auto_pad="explicit" />
			<input>
				<port id="0" precision="FP32">
					<dim>-1</dim>
					<dim>256</dim>
					<dim>6</dim>
					<dim>-1</dim>
				</port>
				<port id="1" precision="FP32">
					<dim>256</dim>
					<dim>1</dim>
					<dim>1</dim>
					<dim>5</dim>
					<dim>5</dim>
				</port>
			</input>
			<output>
				<port id="2" precision="FP32" names="depthwise_conv2d_10.tmp_0">
					<dim>-1</dim>
					<dim>256</dim>
					<dim>6</dim>
					<dim>-1</dim>
				</port>
			</output>
		</layer>
		<layer id="151" name="Constant_8513_compressed" type="Const" version="opset1">
			<data element_type="f16" shape="1, 256, 1, 1" offset="731264" size="512" />
			<output>
				<port id="0" precision="FP16">
					<dim>1</dim>
					<dim>256</dim>
					<dim>1</dim>
					<dim>1</dim>
				</port>
			</output>
		</layer>
		<layer id="152" name="Constant_8513" type="Convert" version="opset1">
			<data destination_type="f32" />
			<rt_info>
				<attribute name="decompression" version="0" />
			</rt_info>
			<input>
				<port id="0" precision="FP16">
					<dim>1</dim>
					<dim>256</dim>
					<dim>1</dim>
					<dim>1</dim>
				</port>
			</input>
			<output>
				<port id="1" precision="FP32">
					<dim>1</dim>
					<dim>256</dim>
					<dim>1</dim>
					<dim>1</dim>
				</port>
			</output>
		</layer>
		<layer id="153" name="p2o.BatchNormalization.21" type="Add" version="opset1">
			<data auto_broadcast="numpy" />
			<input>
				<port id="0" precision="FP32">
					<dim>-1</dim>
					<dim>256</dim>
					<dim>6</dim>
					<dim>-1</dim>
				</port>
				<port id="1" precision="FP32">
					<dim>1</dim>
					<dim>256</dim>
					<dim>1</dim>
					<dim>1</dim>
				</port>
			</input>
			<output>
				<port id="2" precision="FP32" names="batch_norm_21.tmp_3">
					<dim>-1</dim>
					<dim>256</dim>
					<dim>6</dim>
					<dim>-1</dim>
				</port>
			</output>
		</layer>
		<layer id="154" name="HSwish_6012" type="HSwish" version="opset4">
			<input>
				<port id="0" precision="FP32">
					<dim>-1</dim>
					<dim>256</dim>
					<dim>6</dim>
					<dim>-1</dim>
				</port>
			</input>
			<output>
				<port id="1" precision="FP32">
					<dim>-1</dim>
					<dim>256</dim>
					<dim>6</dim>
					<dim>-1</dim>
				</port>
			</output>
		</layer>
		<layer id="155" name="Multiply_8794_compressed" type="Const" version="opset1">
			<data element_type="f16" shape="256, 256, 1, 1" offset="731776" size="131072" />
			<output>
				<port id="0" precision="FP16">
					<dim>256</dim>
					<dim>256</dim>
					<dim>1</dim>
					<dim>1</dim>
				</port>
			</output>
		</layer>
		<layer id="156" name="Multiply_8794" type="Convert" version="opset1">
			<data destination_type="f32" />
			<rt_info>
				<attribute name="decompression" version="0" />
			</rt_info>
			<input>
				<port id="0" precision="FP16">
					<dim>256</dim>
					<dim>256</dim>
					<dim>1</dim>
					<dim>1</dim>
				</port>
			</input>
			<output>
				<port id="1" precision="FP32">
					<dim>256</dim>
					<dim>256</dim>
					<dim>1</dim>
					<dim>1</dim>
				</port>
			</output>
		</layer>
		<layer id="157" name="Multiply_8518" type="Convolution" version="opset1">
			<data strides="1, 1" dilations="1, 1" pads_begin="0, 0" pads_end="0, 0" auto_pad="explicit" />
			<input>
				<port id="0" precision="FP32">
					<dim>-1</dim>
					<dim>256</dim>
					<dim>6</dim>
					<dim>-1</dim>
				</port>
				<port id="1" precision="FP32">
					<dim>256</dim>
					<dim>256</dim>
					<dim>1</dim>
					<dim>1</dim>
				</port>
			</input>
			<output>
				<port id="2" precision="FP32">
					<dim>-1</dim>
					<dim>256</dim>
					<dim>6</dim>
					<dim>-1</dim>
				</port>
			</output>
		</layer>
		<layer id="158" name="Constant_8523_compressed" type="Const" version="opset1">
			<data element_type="f16" shape="1, 256, 1, 1" offset="862848" size="512" />
			<output>
				<port id="0" precision="FP16">
					<dim>1</dim>
					<dim>256</dim>
					<dim>1</dim>
					<dim>1</dim>
				</port>
			</output>
		</layer>
		<layer id="159" name="Constant_8523" type="Convert" version="opset1">
			<data destination_type="f32" />
			<rt_info>
				<attribute name="decompression" version="0" />
			</rt_info>
			<input>
				<port id="0" precision="FP16">
					<dim>1</dim>
					<dim>256</dim>
					<dim>1</dim>
					<dim>1</dim>
				</port>
			</input>
			<output>
				<port id="1" precision="FP32">
					<dim>1</dim>
					<dim>256</dim>
					<dim>1</dim>
					<dim>1</dim>
				</port>
			</output>
		</layer>
		<layer id="160" name="p2o.BatchNormalization.22" type="Add" version="opset1">
			<data auto_broadcast="numpy" />
			<input>
				<port id="0" precision="FP32">
					<dim>-1</dim>
					<dim>256</dim>
					<dim>6</dim>
					<dim>-1</dim>
				</port>
				<port id="1" precision="FP32">
					<dim>1</dim>
					<dim>256</dim>
					<dim>1</dim>
					<dim>1</dim>
				</port>
			</input>
			<output>
				<port id="2" precision="FP32" names="batch_norm_22.tmp_3">
					<dim>-1</dim>
					<dim>256</dim>
					<dim>6</dim>
					<dim>-1</dim>
				</port>
			</output>
		</layer>
		<layer id="161" name="HSwish_6015" type="HSwish" version="opset4">
			<input>
				<port id="0" precision="FP32">
					<dim>-1</dim>
					<dim>256</dim>
					<dim>6</dim>
					<dim>-1</dim>
				</port>
			</input>
			<output>
				<port id="1" precision="FP32">
					<dim>-1</dim>
					<dim>256</dim>
					<dim>6</dim>
					<dim>-1</dim>
				</port>
			</output>
		</layer>
		<layer id="162" name="Multiply_8803_compressed" type="Const" version="opset1">
			<data element_type="f16" shape="256, 1, 1, 5, 5" offset="863360" size="12800" />
			<output>
				<port id="0" precision="FP16">
					<dim>256</dim>
					<dim>1</dim>
					<dim>1</dim>
					<dim>5</dim>
					<dim>5</dim>
				</port>
			</output>
		</layer>
		<layer id="163" name="Multiply_8803" type="Convert" version="opset1">
			<data destination_type="f32" />
			<rt_info>
				<attribute name="decompression" version="0" />
			</rt_info>
			<input>
				<port id="0" precision="FP16">
					<dim>256</dim>
					<dim>1</dim>
					<dim>1</dim>
					<dim>5</dim>
					<dim>5</dim>
				</port>
			</input>
			<output>
				<port id="1" precision="FP32">
					<dim>256</dim>
					<dim>1</dim>
					<dim>1</dim>
					<dim>5</dim>
					<dim>5</dim>
				</port>
			</output>
		</layer>
		<layer id="164" name="Multiply_8528" type="GroupConvolution" version="opset1">
			<data strides="2, 1" pads_begin="2, 2" pads_end="2, 2" dilations="1, 1" auto_pad="explicit" />
			<input>
				<port id="0" precision="FP32">
					<dim>-1</dim>
					<dim>256</dim>
					<dim>6</dim>
					<dim>-1</dim>
				</port>
				<port id="1" precision="FP32">
					<dim>256</dim>
					<dim>1</dim>
					<dim>1</dim>
					<dim>5</dim>
					<dim>5</dim>
				</port>
			</input>
			<output>
				<port id="2" precision="FP32" names="depthwise_conv2d_11.tmp_0">
					<dim>-1</dim>
					<dim>256</dim>
					<dim>3</dim>
					<dim>-1</dim>
				</port>
			</output>
		</layer>
		<layer id="165" name="Constant_8533_compressed" type="Const" version="opset1">
			<data element_type="f16" shape="1, 256, 1, 1" offset="876160" size="512" />
			<output>
				<port id="0" precision="FP16">
					<dim>1</dim>
					<dim>256</dim>
					<dim>1</dim>
					<dim>1</dim>
				</port>
			</output>
		</layer>
		<layer id="166" name="Constant_8533" type="Convert" version="opset1">
			<data destination_type="f32" />
			<rt_info>
				<attribute name="decompression" version="0" />
			</rt_info>
			<input>
				<port id="0" precision="FP16">
					<dim>1</dim>
					<dim>256</dim>
					<dim>1</dim>
					<dim>1</dim>
				</port>
			</input>
			<output>
				<port id="1" precision="FP32">
					<dim>1</dim>
					<dim>256</dim>
					<dim>1</dim>
					<dim>1</dim>
				</port>
			</output>
		</layer>
		<layer id="167" name="p2o.BatchNormalization.23" type="Add" version="opset1">
			<data auto_broadcast="numpy" />
			<input>
				<port id="0" precision="FP32">
					<dim>-1</dim>
					<dim>256</dim>
					<dim>3</dim>
					<dim>-1</dim>
				</port>
				<port id="1" precision="FP32">
					<dim>1</dim>
					<dim>256</dim>
					<dim>1</dim>
					<dim>1</dim>
				</port>
			</input>
			<output>
				<port id="2" precision="FP32" names="batch_norm_23.tmp_3">
					<dim>-1</dim>
					<dim>256</dim>
					<dim>3</dim>
					<dim>-1</dim>
				</port>
			</output>
		</layer>
		<layer id="168" name="HSwish_6018" type="HSwish" version="opset4">
			<input>
				<port id="0" precision="FP32">
					<dim>-1</dim>
					<dim>256</dim>
					<dim>3</dim>
					<dim>-1</dim>
				</port>
			</input>
			<output>
				<port id="1" precision="FP32">
					<dim>-1</dim>
					<dim>256</dim>
					<dim>3</dim>
					<dim>-1</dim>
				</port>
			</output>
		</layer>
		<layer id="169" name="Constant_9202_compressed" type="Const" version="opset1">
			<data element_type="f16" shape="1, 1, 1, 1" offset="876672" size="2" />
			<output>
				<port id="0" precision="FP16">
					<dim>1</dim>
					<dim>1</dim>
					<dim>1</dim>
					<dim>1</dim>
				</port>
			</output>
		</layer>
		<layer id="170" name="Constant_9202" type="Convert" version="opset1">
			<data destination_type="f32" />
			<rt_info>
				<attribute name="decompression" version="0" />
			</rt_info>
			<input>
				<port id="0" precision="FP16">
					<dim>1</dim>
					<dim>1</dim>
					<dim>1</dim>
					<dim>1</dim>
				</port>
			</input>
			<output>
				<port id="1" precision="FP32">
					<dim>1</dim>
					<dim>1</dim>
					<dim>1</dim>
					<dim>1</dim>
				</port>
			</output>
		</layer>
		<layer id="171" name="p2o.Div.23" type="Multiply" version="opset1">
			<data auto_broadcast="numpy" />
			<input>
				<port id="0" precision="FP32">
					<dim>-1</dim>
					<dim>256</dim>
					<dim>3</dim>
					<dim>-1</dim>
				</port>
				<port id="1" precision="FP32">
					<dim>1</dim>
					<dim>1</dim>
					<dim>1</dim>
					<dim>1</dim>
				</port>
			</input>
			<output>
				<port id="2" precision="FP32" names="batch_norm_23.tmp_4">
					<dim>-1</dim>
					<dim>256</dim>
					<dim>3</dim>
					<dim>-1</dim>
				</port>
			</output>
		</layer>
		<layer id="172" name="Range_996" type="Const" version="opset1">
			<data element_type="i64" shape="2" offset="876674" size="16" />
			<output>
				<port id="0" precision="I64">
					<dim>2</dim>
				</port>
			</output>
		</layer>
		<layer id="173" name="p2o.GlobalAveragePool.0" type="ReduceMean" version="opset1">
			<data keep_dims="true" />
			<input>
				<port id="0" precision="FP32">
					<dim>-1</dim>
					<dim>256</dim>
					<dim>3</dim>
					<dim>-1</dim>
				</port>
				<port id="1" precision="I64">
					<dim>2</dim>
				</port>
			</input>
			<output>
				<port id="2" precision="FP32" names="p2o.GlobalAveragePool.1">
					<dim>-1</dim>
					<dim>256</dim>
					<dim>1</dim>
					<dim>1</dim>
				</port>
			</output>
		</layer>
		<layer id="174" name="conv2d_24.w_0_compressed" type="Const" version="opset1">
			<data element_type="f16" shape="64, 256, 1, 1" offset="876690" size="32768" />
			<output>
				<port id="0" precision="FP16">
					<dim>64</dim>
					<dim>256</dim>
					<dim>1</dim>
					<dim>1</dim>
				</port>
			</output>
		</layer>
		<layer id="175" name="conv2d_24.w_0" type="Convert" version="opset1">
			<data destination_type="f32" />
			<rt_info>
				<attribute name="decompression" version="0" />
			</rt_info>
			<input>
				<port id="0" precision="FP16">
					<dim>64</dim>
					<dim>256</dim>
					<dim>1</dim>
					<dim>1</dim>
				</port>
			</input>
			<output>
				<port id="1" precision="FP32" names="conv2d_24.w_0">
					<dim>64</dim>
					<dim>256</dim>
					<dim>1</dim>
					<dim>1</dim>
				</port>
			</output>
		</layer>
		<layer id="176" name="p2o.Conv.24/WithoutBiases" type="Convolution" version="opset1">
			<data strides="1, 1" dilations="1, 1" pads_begin="0, 0" pads_end="0, 0" auto_pad="explicit" />
			<input>
				<port id="0" precision="FP32">
					<dim>-1</dim>
					<dim>256</dim>
					<dim>1</dim>
					<dim>1</dim>
				</port>
				<port id="1" precision="FP32">
					<dim>64</dim>
					<dim>256</dim>
					<dim>1</dim>
					<dim>1</dim>
				</port>
			</input>
			<output>
				<port id="2" precision="FP32">
					<dim>-1</dim>
					<dim>64</dim>
					<dim>1</dim>
					<dim>1</dim>
				</port>
			</output>
		</layer>
		<layer id="177" name="Reshape_1011_compressed" type="Const" version="opset1">
			<data element_type="f16" shape="1, 64, 1, 1" offset="909458" size="128" />
			<output>
				<port id="0" precision="FP16">
					<dim>1</dim>
					<dim>64</dim>
					<dim>1</dim>
					<dim>1</dim>
				</port>
			</output>
		</layer>
		<layer id="178" name="Reshape_1011" type="Convert" version="opset1">
			<data destination_type="f32" />
			<rt_info>
				<attribute name="decompression" version="0" />
			</rt_info>
			<input>
				<port id="0" precision="FP16">
					<dim>1</dim>
					<dim>64</dim>
					<dim>1</dim>
					<dim>1</dim>
				</port>
			</input>
			<output>
				<port id="1" precision="FP32">
					<dim>1</dim>
					<dim>64</dim>
					<dim>1</dim>
					<dim>1</dim>
				</port>
			</output>
		</layer>
		<layer id="179" name="p2o.Conv.24" type="Add" version="opset1">
			<data auto_broadcast="numpy" />
			<input>
				<port id="0" precision="FP32">
					<dim>-1</dim>
					<dim>64</dim>
					<dim>1</dim>
					<dim>1</dim>
				</port>
				<port id="1" precision="FP32">
					<dim>1</dim>
					<dim>64</dim>
					<dim>1</dim>
					<dim>1</dim>
				</port>
			</input>
			<output>
				<port id="2" precision="FP32" names="conv2d_49.tmp_0">
					<dim>-1</dim>
					<dim>64</dim>
					<dim>1</dim>
					<dim>1</dim>
				</port>
			</output>
		</layer>
		<layer id="180" name="p2o.Relu.0" type="ReLU" version="opset1">
			<input>
				<port id="0" precision="FP32">
					<dim>-1</dim>
					<dim>64</dim>
					<dim>1</dim>
					<dim>1</dim>
				</port>
			</input>
			<output>
				<port id="1" precision="FP32" names="relu_0.tmp_0">
					<dim>-1</dim>
					<dim>64</dim>
					<dim>1</dim>
					<dim>1</dim>
				</port>
			</output>
		</layer>
		<layer id="181" name="conv2d_25.w_0_compressed" type="Const" version="opset1">
			<data element_type="f16" shape="256, 64, 1, 1" offset="909586" size="32768" />
			<output>
				<port id="0" precision="FP16">
					<dim>256</dim>
					<dim>64</dim>
					<dim>1</dim>
					<dim>1</dim>
				</port>
			</output>
		</layer>
		<layer id="182" name="conv2d_25.w_0" type="Convert" version="opset1">
			<data destination_type="f32" />
			<rt_info>
				<attribute name="decompression" version="0" />
			</rt_info>
			<input>
				<port id="0" precision="FP16">
					<dim>256</dim>
					<dim>64</dim>
					<dim>1</dim>
					<dim>1</dim>
				</port>
			</input>
			<output>
				<port id="1" precision="FP32" names="conv2d_25.w_0">
					<dim>256</dim>
					<dim>64</dim>
					<dim>1</dim>
					<dim>1</dim>
				</port>
			</output>
		</layer>
		<layer id="183" name="p2o.Conv.25/WithoutBiases" type="Convolution" version="opset1">
			<data strides="1, 1" dilations="1, 1" pads_begin="0, 0" pads_end="0, 0" auto_pad="explicit" />
			<input>
				<port id="0" precision="FP32">
					<dim>-1</dim>
					<dim>64</dim>
					<dim>1</dim>
					<dim>1</dim>
				</port>
				<port id="1" precision="FP32">
					<dim>256</dim>
					<dim>64</dim>
					<dim>1</dim>
					<dim>1</dim>
				</port>
			</input>
			<output>
				<port id="2" precision="FP32">
					<dim>-1</dim>
					<dim>256</dim>
					<dim>1</dim>
					<dim>1</dim>
				</port>
			</output>
		</layer>
		<layer id="184" name="Reshape_1027_compressed" type="Const" version="opset1">
			<data element_type="f16" shape="1, 256, 1, 1" offset="942354" size="512" />
			<output>
				<port id="0" precision="FP16">
					<dim>1</dim>
					<dim>256</dim>
					<dim>1</dim>
					<dim>1</dim>
				</port>
			</output>
		</layer>
		<layer id="185" name="Reshape_1027" type="Convert" version="opset1">
			<data destination_type="f32" />
			<rt_info>
				<attribute name="decompression" version="0" />
			</rt_info>
			<input>
				<port id="0" precision="FP16">
					<dim>1</dim>
					<dim>256</dim>
					<dim>1</dim>
					<dim>1</dim>
				</port>
			</input>
			<output>
				<port id="1" precision="FP32">
					<dim>1</dim>
					<dim>256</dim>
					<dim>1</dim>
					<dim>1</dim>
				</port>
			</output>
		</layer>
		<layer id="186" name="p2o.Conv.25" type="Add" version="opset1">
			<data auto_broadcast="numpy" />
			<input>
				<port id="0" precision="FP32">
					<dim>-1</dim>
					<dim>256</dim>
					<dim>1</dim>
					<dim>1</dim>
				</port>
				<port id="1" precision="FP32">
					<dim>1</dim>
					<dim>256</dim>
					<dim>1</dim>
					<dim>1</dim>
				</port>
			</input>
			<output>
				<port id="2" precision="FP32" names="conv2d_50.tmp_0">
					<dim>-1</dim>
					<dim>256</dim>
					<dim>1</dim>
					<dim>1</dim>
				</port>
			</output>
		</layer>
		<layer id="187" name="Constant_1031_compressed" type="Const" version="opset1">
			<data element_type="f16" shape="" offset="942866" size="2" />
			<output>
				<port id="0" precision="FP16" />
			</output>
		</layer>
		<layer id="188" name="Constant_1031" type="Convert" version="opset1">
			<data destination_type="f32" />
			<rt_info>
				<attribute name="decompression" version="0" />
			</rt_info>
			<input>
				<port id="0" precision="FP16" />
			</input>
			<output>
				<port id="1" precision="FP32" />
			</output>
		</layer>
		<layer id="189" name="Constant_1032_compressed" type="Const" version="opset1">
			<data element_type="f16" shape="" offset="942868" size="2" />
			<output>
				<port id="0" precision="FP16" />
			</output>
		</layer>
		<layer id="190" name="Constant_1032" type="Convert" version="opset1">
			<data destination_type="f32" />
			<rt_info>
				<attribute name="decompression" version="0" />
			</rt_info>
			<input>
				<port id="0" precision="FP16" />
			</input>
			<output>
				<port id="1" precision="FP32" />
			</output>
		</layer>
		<layer id="191" name="p2o.HardSigmoid.0" type="HardSigmoid" version="opset1">
			<input>
				<port id="0" precision="FP32">
					<dim>-1</dim>
					<dim>256</dim>
					<dim>1</dim>
					<dim>1</dim>
				</port>
				<port id="1" precision="FP32" />
				<port id="2" precision="FP32" />
			</input>
			<output>
				<port id="3" precision="FP32" names="hardsigmoid_0.tmp_0">
					<dim>-1</dim>
					<dim>256</dim>
					<dim>1</dim>
					<dim>1</dim>
				</port>
			</output>
		</layer>
		<layer id="192" name="p2o.Mul.48" type="Multiply" version="opset1">
			<data auto_broadcast="numpy" />
			<input>
				<port id="0" precision="FP32">
					<dim>-1</dim>
					<dim>256</dim>
					<dim>3</dim>
					<dim>-1</dim>
				</port>
				<port id="1" precision="FP32">
					<dim>-1</dim>
					<dim>256</dim>
					<dim>1</dim>
					<dim>1</dim>
				</port>
			</input>
			<output>
				<port id="2" precision="FP32" names="p2o.Mul.49">
					<dim>-1</dim>
					<dim>256</dim>
					<dim>3</dim>
					<dim>-1</dim>
				</port>
			</output>
		</layer>
		<layer id="193" name="Multiply_8808_compressed" type="Const" version="opset1">
			<data element_type="f16" shape="512, 256, 1, 1" offset="942870" size="262144" />
			<output>
				<port id="0" precision="FP16">
					<dim>512</dim>
					<dim>256</dim>
					<dim>1</dim>
					<dim>1</dim>
				</port>
			</output>
		</layer>
		<layer id="194" name="Multiply_8808" type="Convert" version="opset1">
			<data destination_type="f32" />
			<rt_info>
				<attribute name="decompression" version="0" />
			</rt_info>
			<input>
				<port id="0" precision="FP16">
					<dim>512</dim>
					<dim>256</dim>
					<dim>1</dim>
					<dim>1</dim>
				</port>
			</input>
			<output>
				<port id="1" precision="FP32">
					<dim>512</dim>
					<dim>256</dim>
					<dim>1</dim>
					<dim>1</dim>
				</port>
			</output>
		</layer>
		<layer id="195" name="Multiply_8538" type="Convolution" version="opset1">
			<data strides="1, 1" dilations="1, 1" pads_begin="0, 0" pads_end="0, 0" auto_pad="explicit" />
			<input>
				<port id="0" precision="FP32">
					<dim>-1</dim>
					<dim>256</dim>
					<dim>3</dim>
					<dim>-1</dim>
				</port>
				<port id="1" precision="FP32">
					<dim>512</dim>
					<dim>256</dim>
					<dim>1</dim>
					<dim>1</dim>
				</port>
			</input>
			<output>
				<port id="2" precision="FP32">
					<dim>-1</dim>
					<dim>512</dim>
					<dim>3</dim>
					<dim>-1</dim>
				</port>
			</output>
		</layer>
		<layer id="196" name="Constant_8543_compressed" type="Const" version="opset1">
			<data element_type="f16" shape="1, 512, 1, 1" offset="1205014" size="1024" />
			<output>
				<port id="0" precision="FP16">
					<dim>1</dim>
					<dim>512</dim>
					<dim>1</dim>
					<dim>1</dim>
				</port>
			</output>
		</layer>
		<layer id="197" name="Constant_8543" type="Convert" version="opset1">
			<data destination_type="f32" />
			<rt_info>
				<attribute name="decompression" version="0" />
			</rt_info>
			<input>
				<port id="0" precision="FP16">
					<dim>1</dim>
					<dim>512</dim>
					<dim>1</dim>
					<dim>1</dim>
				</port>
			</input>
			<output>
				<port id="1" precision="FP32">
					<dim>1</dim>
					<dim>512</dim>
					<dim>1</dim>
					<dim>1</dim>
				</port>
			</output>
		</layer>
		<layer id="198" name="p2o.BatchNormalization.24" type="Add" version="opset1">
			<data auto_broadcast="numpy" />
			<input>
				<port id="0" precision="FP32">
					<dim>-1</dim>
					<dim>512</dim>
					<dim>3</dim>
					<dim>-1</dim>
				</port>
				<port id="1" precision="FP32">
					<dim>1</dim>
					<dim>512</dim>
					<dim>1</dim>
					<dim>1</dim>
				</port>
			</input>
			<output>
				<port id="2" precision="FP32" names="batch_norm_24.tmp_3">
					<dim>-1</dim>
					<dim>512</dim>
					<dim>3</dim>
					<dim>-1</dim>
				</port>
			</output>
		</layer>
		<layer id="199" name="HSwish_6021" type="HSwish" version="opset4">
			<input>
				<port id="0" precision="FP32">
					<dim>-1</dim>
					<dim>512</dim>
					<dim>3</dim>
					<dim>-1</dim>
				</port>
			</input>
			<output>
				<port id="1" precision="FP32">
					<dim>-1</dim>
					<dim>512</dim>
					<dim>3</dim>
					<dim>-1</dim>
				</port>
			</output>
		</layer>
		<layer id="200" name="Multiply_8817_compressed" type="Const" version="opset1">
			<data element_type="f16" shape="512, 1, 1, 5, 5" offset="1206038" size="25600" />
			<output>
				<port id="0" precision="FP16">
					<dim>512</dim>
					<dim>1</dim>
					<dim>1</dim>
					<dim>5</dim>
					<dim>5</dim>
				</port>
			</output>
		</layer>
		<layer id="201" name="Multiply_8817" type="Convert" version="opset1">
			<data destination_type="f32" />
			<rt_info>
				<attribute name="decompression" version="0" />
			</rt_info>
			<input>
				<port id="0" precision="FP16">
					<dim>512</dim>
					<dim>1</dim>
					<dim>1</dim>
					<dim>5</dim>
					<dim>5</dim>
				</port>
			</input>
			<output>
				<port id="1" precision="FP32">
					<dim>512</dim>
					<dim>1</dim>
					<dim>1</dim>
					<dim>5</dim>
					<dim>5</dim>
				</port>
			</output>
		</layer>
		<layer id="202" name="Multiply_8548" type="GroupConvolution" version="opset1">
			<data strides="1, 2" pads_begin="2, 2" pads_end="2, 2" dilations="1, 1" auto_pad="explicit" />
			<input>
				<port id="0" precision="FP32">
					<dim>-1</dim>
					<dim>512</dim>
					<dim>3</dim>
					<dim>-1</dim>
				</port>
				<port id="1" precision="FP32">
					<dim>512</dim>
					<dim>1</dim>
					<dim>1</dim>
					<dim>5</dim>
					<dim>5</dim>
				</port>
			</input>
			<output>
				<port id="2" precision="FP32" names="depthwise_conv2d_12.tmp_0">
					<dim>-1</dim>
					<dim>512</dim>
					<dim>3</dim>
					<dim>-1</dim>
				</port>
			</output>
		</layer>
		<layer id="203" name="Constant_8553_compressed" type="Const" version="opset1">
			<data element_type="f16" shape="1, 512, 1, 1" offset="1231638" size="1024" />
			<output>
				<port id="0" precision="FP16">
					<dim>1</dim>
					<dim>512</dim>
					<dim>1</dim>
					<dim>1</dim>
				</port>
			</output>
		</layer>
		<layer id="204" name="Constant_8553" type="Convert" version="opset1">
			<data destination_type="f32" />
			<rt_info>
				<attribute name="decompression" version="0" />
			</rt_info>
			<input>
				<port id="0" precision="FP16">
					<dim>1</dim>
					<dim>512</dim>
					<dim>1</dim>
					<dim>1</dim>
				</port>
			</input>
			<output>
				<port id="1" precision="FP32">
					<dim>1</dim>
					<dim>512</dim>
					<dim>1</dim>
					<dim>1</dim>
				</port>
			</output>
		</layer>
		<layer id="205" name="p2o.BatchNormalization.25" type="Add" version="opset1">
			<data auto_broadcast="numpy" />
			<input>
				<port id="0" precision="FP32">
					<dim>-1</dim>
					<dim>512</dim>
					<dim>3</dim>
					<dim>-1</dim>
				</port>
				<port id="1" precision="FP32">
					<dim>1</dim>
					<dim>512</dim>
					<dim>1</dim>
					<dim>1</dim>
				</port>
			</input>
			<output>
				<port id="2" precision="FP32" names="batch_norm_25.tmp_3">
					<dim>-1</dim>
					<dim>512</dim>
					<dim>3</dim>
					<dim>-1</dim>
				</port>
			</output>
		</layer>
		<layer id="206" name="HSwish_6024" type="HSwish" version="opset4">
			<input>
				<port id="0" precision="FP32">
					<dim>-1</dim>
					<dim>512</dim>
					<dim>3</dim>
					<dim>-1</dim>
				</port>
			</input>
			<output>
				<port id="1" precision="FP32">
					<dim>-1</dim>
					<dim>512</dim>
					<dim>3</dim>
					<dim>-1</dim>
				</port>
			</output>
		</layer>
		<layer id="207" name="Constant_9203_compressed" type="Const" version="opset1">
			<data element_type="f16" shape="1, 1, 1, 1" offset="876672" size="2" />
			<output>
				<port id="0" precision="FP16">
					<dim>1</dim>
					<dim>1</dim>
					<dim>1</dim>
					<dim>1</dim>
				</port>
			</output>
		</layer>
		<layer id="208" name="Constant_9203" type="Convert" version="opset1">
			<data destination_type="f32" />
			<rt_info>
				<attribute name="decompression" version="0" />
			</rt_info>
			<input>
				<port id="0" precision="FP16">
					<dim>1</dim>
					<dim>1</dim>
					<dim>1</dim>
					<dim>1</dim>
				</port>
			</input>
			<output>
				<port id="1" precision="FP32">
					<dim>1</dim>
					<dim>1</dim>
					<dim>1</dim>
					<dim>1</dim>
				</port>
			</output>
		</layer>
		<layer id="209" name="p2o.Div.25" type="Multiply" version="opset1">
			<data auto_broadcast="numpy" />
			<input>
				<port id="0" precision="FP32">
					<dim>-1</dim>
					<dim>512</dim>
					<dim>3</dim>
					<dim>-1</dim>
				</port>
				<port id="1" precision="FP32">
					<dim>1</dim>
					<dim>1</dim>
					<dim>1</dim>
					<dim>1</dim>
				</port>
			</input>
			<output>
				<port id="2" precision="FP32" names="batch_norm_25.tmp_4">
					<dim>-1</dim>
					<dim>512</dim>
					<dim>3</dim>
					<dim>-1</dim>
				</port>
			</output>
		</layer>
		<layer id="210" name="Range_1107" type="Const" version="opset1">
			<data element_type="i64" shape="2" offset="876674" size="16" />
			<output>
				<port id="0" precision="I64">
					<dim>2</dim>
				</port>
			</output>
		</layer>
		<layer id="211" name="p2o.GlobalAveragePool.2" type="ReduceMean" version="opset1">
			<data keep_dims="true" />
			<input>
				<port id="0" precision="FP32">
					<dim>-1</dim>
					<dim>512</dim>
					<dim>3</dim>
					<dim>-1</dim>
				</port>
				<port id="1" precision="I64">
					<dim>2</dim>
				</port>
			</input>
			<output>
				<port id="2" precision="FP32" names="p2o.GlobalAveragePool.3">
					<dim>-1</dim>
					<dim>512</dim>
					<dim>1</dim>
					<dim>1</dim>
				</port>
			</output>
		</layer>
		<layer id="212" name="conv2d_28.w_0_compressed" type="Const" version="opset1">
			<data element_type="f16" shape="128, 512, 1, 1" offset="1232662" size="131072" />
			<output>
				<port id="0" precision="FP16">
					<dim>128</dim>
					<dim>512</dim>
					<dim>1</dim>
					<dim>1</dim>
				</port>
			</output>
		</layer>
		<layer id="213" name="conv2d_28.w_0" type="Convert" version="opset1">
			<data destination_type="f32" />
			<rt_info>
				<attribute name="decompression" version="0" />
			</rt_info>
			<input>
				<port id="0" precision="FP16">
					<dim>128</dim>
					<dim>512</dim>
					<dim>1</dim>
					<dim>1</dim>
				</port>
			</input>
			<output>
				<port id="1" precision="FP32" names="conv2d_28.w_0">
					<dim>128</dim>
					<dim>512</dim>
					<dim>1</dim>
					<dim>1</dim>
				</port>
			</output>
		</layer>
		<layer id="214" name="p2o.Conv.28/WithoutBiases" type="Convolution" version="opset1">
			<data strides="1, 1" dilations="1, 1" pads_begin="0, 0" pads_end="0, 0" auto_pad="explicit" />
			<input>
				<port id="0" precision="FP32">
					<dim>-1</dim>
					<dim>512</dim>
					<dim>1</dim>
					<dim>1</dim>
				</port>
				<port id="1" precision="FP32">
					<dim>128</dim>
					<dim>512</dim>
					<dim>1</dim>
					<dim>1</dim>
				</port>
			</input>
			<output>
				<port id="2" precision="FP32">
					<dim>-1</dim>
					<dim>128</dim>
					<dim>1</dim>
					<dim>1</dim>
				</port>
			</output>
		</layer>
		<layer id="215" name="Reshape_1122_compressed" type="Const" version="opset1">
			<data element_type="f16" shape="1, 128, 1, 1" offset="1363734" size="256" />
			<output>
				<port id="0" precision="FP16">
					<dim>1</dim>
					<dim>128</dim>
					<dim>1</dim>
					<dim>1</dim>
				</port>
			</output>
		</layer>
		<layer id="216" name="Reshape_1122" type="Convert" version="opset1">
			<data destination_type="f32" />
			<rt_info>
				<attribute name="decompression" version="0" />
			</rt_info>
			<input>
				<port id="0" precision="FP16">
					<dim>1</dim>
					<dim>128</dim>
					<dim>1</dim>
					<dim>1</dim>
				</port>
			</input>
			<output>
				<port id="1" precision="FP32">
					<dim>1</dim>
					<dim>128</dim>
					<dim>1</dim>
					<dim>1</dim>
				</port>
			</output>
		</layer>
		<layer id="217" name="p2o.Conv.28" type="Add" version="opset1">
			<data auto_broadcast="numpy" />
			<input>
				<port id="0" precision="FP32">
					<dim>-1</dim>
					<dim>128</dim>
					<dim>1</dim>
					<dim>1</dim>
				</port>
				<port id="1" precision="FP32">
					<dim>1</dim>
					<dim>128</dim>
					<dim>1</dim>
					<dim>1</dim>
				</port>
			</input>
			<output>
				<port id="2" precision="FP32" names="conv2d_52.tmp_0">
					<dim>-1</dim>
					<dim>128</dim>
					<dim>1</dim>
					<dim>1</dim>
				</port>
			</output>
		</layer>
		<layer id="218" name="p2o.Relu.1" type="ReLU" version="opset1">
			<input>
				<port id="0" precision="FP32">
					<dim>-1</dim>
					<dim>128</dim>
					<dim>1</dim>
					<dim>1</dim>
				</port>
			</input>
			<output>
				<port id="1" precision="FP32" names="relu_1.tmp_0">
					<dim>-1</dim>
					<dim>128</dim>
					<dim>1</dim>
					<dim>1</dim>
				</port>
			</output>
		</layer>
		<layer id="219" name="conv2d_29.w_0_compressed" type="Const" version="opset1">
			<data element_type="f16" shape="512, 128, 1, 1" offset="1363990" size="131072" />
			<output>
				<port id="0" precision="FP16">
					<dim>512</dim>
					<dim>128</dim>
					<dim>1</dim>
					<dim>1</dim>
				</port>
			</output>
		</layer>
		<layer id="220" name="conv2d_29.w_0" type="Convert" version="opset1">
			<data destination_type="f32" />
			<rt_info>
				<attribute name="decompression" version="0" />
			</rt_info>
			<input>
				<port id="0" precision="FP16">
					<dim>512</dim>
					<dim>128</dim>
					<dim>1</dim>
					<dim>1</dim>
				</port>
			</input>
			<output>
				<port id="1" precision="FP32" names="conv2d_29.w_0">
					<dim>512</dim>
					<dim>128</dim>
					<dim>1</dim>
					<dim>1</dim>
				</port>
			</output>
		</layer>
		<layer id="221" name="p2o.Conv.29/WithoutBiases" type="Convolution" version="opset1">
			<data strides="1, 1" dilations="1, 1" pads_begin="0, 0" pads_end="0, 0" auto_pad="explicit" />
			<input>
				<port id="0" precision="FP32">
					<dim>-1</dim>
					<dim>128</dim>
					<dim>1</dim>
					<dim>1</dim>
				</port>
				<port id="1" precision="FP32">
					<dim>512</dim>
					<dim>128</dim>
					<dim>1</dim>
					<dim>1</dim>
				</port>
			</input>
			<output>
				<port id="2" precision="FP32">
					<dim>-1</dim>
					<dim>512</dim>
					<dim>1</dim>
					<dim>1</dim>
				</port>
			</output>
		</layer>
		<layer id="222" name="Reshape_1138_compressed" type="Const" version="opset1">
			<data element_type="f16" shape="1, 512, 1, 1" offset="1495062" size="1024" />
			<output>
				<port id="0" precision="FP16">
					<dim>1</dim>
					<dim>512</dim>
					<dim>1</dim>
					<dim>1</dim>
				</port>
			</output>
		</layer>
		<layer id="223" name="Reshape_1138" type="Convert" version="opset1">
			<data destination_type="f32" />
			<rt_info>
				<attribute name="decompression" version="0" />
			</rt_info>
			<input>
				<port id="0" precision="FP16">
					<dim>1</dim>
					<dim>512</dim>
					<dim>1</dim>
					<dim>1</dim>
				</port>
			</input>
			<output>
				<port id="1" precision="FP32">
					<dim>1</dim>
					<dim>512</dim>
					<dim>1</dim>
					<dim>1</dim>
				</port>
			</output>
		</layer>
		<layer id="224" name="p2o.Conv.29" type="Add" version="opset1">
			<data auto_broadcast="numpy" />
			<input>
				<port id="0" precision="FP32">
					<dim>-1</dim>
					<dim>512</dim>
					<dim>1</dim>
					<dim>1</dim>
				</port>
				<port id="1" precision="FP32">
					<dim>1</dim>
					<dim>512</dim>
					<dim>1</dim>
					<dim>1</dim>
				</port>
			</input>
			<output>
				<port id="2" precision="FP32" names="conv2d_53.tmp_0">
					<dim>-1</dim>
					<dim>512</dim>
					<dim>1</dim>
					<dim>1</dim>
				</port>
			</output>
		</layer>
		<layer id="225" name="Constant_1142_compressed" type="Const" version="opset1">
			<data element_type="f16" shape="" offset="942866" size="2" />
			<output>
				<port id="0" precision="FP16" />
			</output>
		</layer>
		<layer id="226" name="Constant_1142" type="Convert" version="opset1">
			<data destination_type="f32" />
			<rt_info>
				<attribute name="decompression" version="0" />
			</rt_info>
			<input>
				<port id="0" precision="FP16" />
			</input>
			<output>
				<port id="1" precision="FP32" />
			</output>
		</layer>
		<layer id="227" name="Constant_1143_compressed" type="Const" version="opset1">
			<data element_type="f16" shape="" offset="942868" size="2" />
			<output>
				<port id="0" precision="FP16" />
			</output>
		</layer>
		<layer id="228" name="Constant_1143" type="Convert" version="opset1">
			<data destination_type="f32" />
			<rt_info>
				<attribute name="decompression" version="0" />
			</rt_info>
			<input>
				<port id="0" precision="FP16" />
			</input>
			<output>
				<port id="1" precision="FP32" />
			</output>
		</layer>
		<layer id="229" name="p2o.HardSigmoid.1" type="HardSigmoid" version="opset1">
			<input>
				<port id="0" precision="FP32">
					<dim>-1</dim>
					<dim>512</dim>
					<dim>1</dim>
					<dim>1</dim>
				</port>
				<port id="1" precision="FP32" />
				<port id="2" precision="FP32" />
			</input>
			<output>
				<port id="3" precision="FP32" names="hardsigmoid_1.tmp_0">
					<dim>-1</dim>
					<dim>512</dim>
					<dim>1</dim>
					<dim>1</dim>
				</port>
			</output>
		</layer>
		<layer id="230" name="p2o.Mul.54" type="Multiply" version="opset1">
			<data auto_broadcast="numpy" />
			<input>
				<port id="0" precision="FP32">
					<dim>-1</dim>
					<dim>512</dim>
					<dim>3</dim>
					<dim>-1</dim>
				</port>
				<port id="1" precision="FP32">
					<dim>-1</dim>
					<dim>512</dim>
					<dim>1</dim>
					<dim>1</dim>
				</port>
			</input>
			<output>
				<port id="2" precision="FP32" names="p2o.Mul.55">
					<dim>-1</dim>
					<dim>512</dim>
					<dim>3</dim>
					<dim>-1</dim>
				</port>
			</output>
		</layer>
		<layer id="231" name="Multiply_8822_compressed" type="Const" version="opset1">
			<data element_type="f16" shape="512, 512, 1, 1" offset="1496086" size="524288" />
			<output>
				<port id="0" precision="FP16">
					<dim>512</dim>
					<dim>512</dim>
					<dim>1</dim>
					<dim>1</dim>
				</port>
			</output>
		</layer>
		<layer id="232" name="Multiply_8822" type="Convert" version="opset1">
			<data destination_type="f32" />
			<rt_info>
				<attribute name="decompression" version="0" />
			</rt_info>
			<input>
				<port id="0" precision="FP16">
					<dim>512</dim>
					<dim>512</dim>
					<dim>1</dim>
					<dim>1</dim>
				</port>
			</input>
			<output>
				<port id="1" precision="FP32">
					<dim>512</dim>
					<dim>512</dim>
					<dim>1</dim>
					<dim>1</dim>
				</port>
			</output>
		</layer>
		<layer id="233" name="Multiply_8558" type="Convolution" version="opset1">
			<data strides="1, 1" dilations="1, 1" pads_begin="0, 0" pads_end="0, 0" auto_pad="explicit" />
			<input>
				<port id="0" precision="FP32">
					<dim>-1</dim>
					<dim>512</dim>
					<dim>3</dim>
					<dim>-1</dim>
				</port>
				<port id="1" precision="FP32">
					<dim>512</dim>
					<dim>512</dim>
					<dim>1</dim>
					<dim>1</dim>
				</port>
			</input>
			<output>
				<port id="2" precision="FP32">
					<dim>-1</dim>
					<dim>512</dim>
					<dim>3</dim>
					<dim>-1</dim>
				</port>
			</output>
		</layer>
		<layer id="234" name="Constant_8563_compressed" type="Const" version="opset1">
			<data element_type="f16" shape="1, 512, 1, 1" offset="2020374" size="1024" />
			<output>
				<port id="0" precision="FP16">
					<dim>1</dim>
					<dim>512</dim>
					<dim>1</dim>
					<dim>1</dim>
				</port>
			</output>
		</layer>
		<layer id="235" name="Constant_8563" type="Convert" version="opset1">
			<data destination_type="f32" />
			<rt_info>
				<attribute name="decompression" version="0" />
			</rt_info>
			<input>
				<port id="0" precision="FP16">
					<dim>1</dim>
					<dim>512</dim>
					<dim>1</dim>
					<dim>1</dim>
				</port>
			</input>
			<output>
				<port id="1" precision="FP32">
					<dim>1</dim>
					<dim>512</dim>
					<dim>1</dim>
					<dim>1</dim>
				</port>
			</output>
		</layer>
		<layer id="236" name="p2o.BatchNormalization.26" type="Add" version="opset1">
			<data auto_broadcast="numpy" />
			<input>
				<port id="0" precision="FP32">
					<dim>-1</dim>
					<dim>512</dim>
					<dim>3</dim>
					<dim>-1</dim>
				</port>
				<port id="1" precision="FP32">
					<dim>1</dim>
					<dim>512</dim>
					<dim>1</dim>
					<dim>1</dim>
				</port>
			</input>
			<output>
				<port id="2" precision="FP32" names="batch_norm_26.tmp_3">
					<dim>-1</dim>
					<dim>512</dim>
					<dim>3</dim>
					<dim>-1</dim>
				</port>
			</output>
		</layer>
		<layer id="237" name="HSwish_6027" type="HSwish" version="opset4">
			<input>
				<port id="0" precision="FP32">
					<dim>-1</dim>
					<dim>512</dim>
					<dim>3</dim>
					<dim>-1</dim>
				</port>
			</input>
			<output>
				<port id="1" precision="FP32">
					<dim>-1</dim>
					<dim>512</dim>
					<dim>3</dim>
					<dim>-1</dim>
				</port>
			</output>
		</layer>
		<layer id="238" name="Constant_9204_compressed" type="Const" version="opset1">
			<data element_type="f16" shape="1, 1, 1, 1" offset="876672" size="2" />
			<output>
				<port id="0" precision="FP16">
					<dim>1</dim>
					<dim>1</dim>
					<dim>1</dim>
					<dim>1</dim>
				</port>
			</output>
		</layer>
		<layer id="239" name="Constant_9204" type="Convert" version="opset1">
			<data destination_type="f32" />
			<rt_info>
				<attribute name="decompression" version="0" />
			</rt_info>
			<input>
				<port id="0" precision="FP16">
					<dim>1</dim>
					<dim>1</dim>
					<dim>1</dim>
					<dim>1</dim>
				</port>
			</input>
			<output>
				<port id="1" precision="FP32">
					<dim>1</dim>
					<dim>1</dim>
					<dim>1</dim>
					<dim>1</dim>
				</port>
			</output>
		</layer>
		<layer id="240" name="p2o.Div.26" type="Multiply" version="opset1">
			<data auto_broadcast="numpy" />
			<input>
				<port id="0" precision="FP32">
					<dim>-1</dim>
					<dim>512</dim>
					<dim>3</dim>
					<dim>-1</dim>
				</port>
				<port id="1" precision="FP32">
					<dim>1</dim>
					<dim>1</dim>
					<dim>1</dim>
					<dim>1</dim>
				</port>
			</input>
			<output>
				<port id="2" precision="FP32" names="batch_norm_26.tmp_4">
					<dim>-1</dim>
					<dim>512</dim>
					<dim>3</dim>
					<dim>-1</dim>
				</port>
			</output>
		</layer>
		<layer id="241" name="p2o.AveragePool.0" type="AvgPool" version="opset1">
			<data kernel="2, 2" strides="2, 2" pads_begin="0, 0" pads_end="0, 0" exclude-pad="true" auto_pad="explicit" rounding_type="floor" />
			<input>
				<port id="0" precision="FP32">
					<dim>-1</dim>
					<dim>512</dim>
					<dim>3</dim>
					<dim>-1</dim>
				</port>
			</input>
			<output>
				<port id="1" precision="FP32" names="p2o.AveragePool.1">
					<dim>-1</dim>
					<dim>512</dim>
					<dim>1</dim>
					<dim>-1</dim>
				</port>
			</output>
		</layer>
		<layer id="242" name="Multiply_8828_compressed" type="Const" version="opset1">
			<data element_type="f16" shape="64, 512, 3, 3" offset="2021398" size="589824" />
			<output>
				<port id="0" precision="FP16">
					<dim>64</dim>
					<dim>512</dim>
					<dim>3</dim>
					<dim>3</dim>
				</port>
			</output>
		</layer>
		<layer id="243" name="Multiply_8828" type="Convert" version="opset1">
			<data destination_type="f32" />
			<rt_info>
				<attribute name="decompression" version="0" />
			</rt_info>
			<input>
				<port id="0" precision="FP16">
					<dim>64</dim>
					<dim>512</dim>
					<dim>3</dim>
					<dim>3</dim>
				</port>
			</input>
			<output>
				<port id="1" precision="FP32">
					<dim>64</dim>
					<dim>512</dim>
					<dim>3</dim>
					<dim>3</dim>
				</port>
			</output>
		</layer>
		<layer id="244" name="Multiply_8568" type="Convolution" version="opset1">
			<data strides="1, 1" dilations="1, 1" pads_begin="1, 1" pads_end="1, 1" auto_pad="explicit" />
			<input>
				<port id="0" precision="FP32">
					<dim>-1</dim>
					<dim>512</dim>
					<dim>1</dim>
					<dim>-1</dim>
				</port>
				<port id="1" precision="FP32">
					<dim>64</dim>
					<dim>512</dim>
					<dim>3</dim>
					<dim>3</dim>
				</port>
			</input>
			<output>
				<port id="2" precision="FP32">
					<dim>-1</dim>
					<dim>64</dim>
					<dim>1</dim>
					<dim>-1</dim>
				</port>
			</output>
		</layer>
		<layer id="245" name="Constant_8573_compressed" type="Const" version="opset1">
			<data element_type="f16" shape="1, 64, 1, 1" offset="2611222" size="128" />
			<output>
				<port id="0" precision="FP16">
					<dim>1</dim>
					<dim>64</dim>
					<dim>1</dim>
					<dim>1</dim>
				</port>
			</output>
		</layer>
		<layer id="246" name="Constant_8573" type="Convert" version="opset1">
			<data destination_type="f32" />
			<rt_info>
				<attribute name="decompression" version="0" />
			</rt_info>
			<input>
				<port id="0" precision="FP16">
					<dim>1</dim>
					<dim>64</dim>
					<dim>1</dim>
					<dim>1</dim>
				</port>
			</input>
			<output>
				<port id="1" precision="FP32">
					<dim>1</dim>
					<dim>64</dim>
					<dim>1</dim>
					<dim>1</dim>
				</port>
			</output>
		</layer>
		<layer id="247" name="p2o.BatchNormalization.27" type="Add" version="opset1">
			<data auto_broadcast="numpy" />
			<input>
				<port id="0" precision="FP32">
					<dim>-1</dim>
					<dim>64</dim>
					<dim>1</dim>
					<dim>-1</dim>
				</port>
				<port id="1" precision="FP32">
					<dim>1</dim>
					<dim>64</dim>
					<dim>1</dim>
					<dim>1</dim>
				</port>
			</input>
			<output>
				<port id="2" precision="FP32" names="batch_norm_27.tmp_2,p2o.Mul.59">
					<dim>-1</dim>
					<dim>64</dim>
					<dim>1</dim>
					<dim>-1</dim>
				</port>
			</output>
		</layer>
		<layer id="248" name="p2o.Mul.60" type="Swish" version="opset4">
			<input>
				<port id="0" precision="FP32">
					<dim>-1</dim>
					<dim>64</dim>
					<dim>1</dim>
					<dim>-1</dim>
				</port>
			</input>
			<output>
				<port id="1" precision="FP32" names="swish_7.tmp_0">
					<dim>-1</dim>
					<dim>64</dim>
					<dim>1</dim>
					<dim>-1</dim>
				</port>
			</output>
		</layer>
		<layer id="249" name="Multiply_8834_compressed" type="Const" version="opset1">
			<data element_type="f16" shape="120, 64, 1, 1" offset="2611350" size="15360" />
			<output>
				<port id="0" precision="FP16">
					<dim>120</dim>
					<dim>64</dim>
					<dim>1</dim>
					<dim>1</dim>
				</port>
			</output>
		</layer>
		<layer id="250" name="Multiply_8834" type="Convert" version="opset1">
			<data destination_type="f32" />
			<rt_info>
				<attribute name="decompression" version="0" />
			</rt_info>
			<input>
				<port id="0" precision="FP16">
					<dim>120</dim>
					<dim>64</dim>
					<dim>1</dim>
					<dim>1</dim>
				</port>
			</input>
			<output>
				<port id="1" precision="FP32">
					<dim>120</dim>
					<dim>64</dim>
					<dim>1</dim>
					<dim>1</dim>
				</port>
			</output>
		</layer>
		<layer id="251" name="Multiply_8575" type="Convolution" version="opset1">
			<data strides="1, 1" dilations="1, 1" pads_begin="0, 0" pads_end="0, 0" auto_pad="explicit" />
			<input>
				<port id="0" precision="FP32">
					<dim>-1</dim>
					<dim>64</dim>
					<dim>1</dim>
					<dim>-1</dim>
				</port>
				<port id="1" precision="FP32">
					<dim>120</dim>
					<dim>64</dim>
					<dim>1</dim>
					<dim>1</dim>
				</port>
			</input>
			<output>
				<port id="2" precision="FP32">
					<dim>-1</dim>
					<dim>120</dim>
					<dim>1</dim>
					<dim>-1</dim>
				</port>
			</output>
		</layer>
		<layer id="252" name="Constant_8580_compressed" type="Const" version="opset1">
			<data element_type="f16" shape="1, 120, 1, 1" offset="2626710" size="240" />
			<output>
				<port id="0" precision="FP16">
					<dim>1</dim>
					<dim>120</dim>
					<dim>1</dim>
					<dim>1</dim>
				</port>
			</output>
		</layer>
		<layer id="253" name="Constant_8580" type="Convert" version="opset1">
			<data destination_type="f32" />
			<rt_info>
				<attribute name="decompression" version="0" />
			</rt_info>
			<input>
				<port id="0" precision="FP16">
					<dim>1</dim>
					<dim>120</dim>
					<dim>1</dim>
					<dim>1</dim>
				</port>
			</input>
			<output>
				<port id="1" precision="FP32">
					<dim>1</dim>
					<dim>120</dim>
					<dim>1</dim>
					<dim>1</dim>
				</port>
			</output>
		</layer>
		<layer id="254" name="p2o.BatchNormalization.28" type="Add" version="opset1">
			<data auto_broadcast="numpy" />
			<input>
				<port id="0" precision="FP32">
					<dim>-1</dim>
					<dim>120</dim>
					<dim>1</dim>
					<dim>-1</dim>
				</port>
				<port id="1" precision="FP32">
					<dim>1</dim>
					<dim>120</dim>
					<dim>1</dim>
					<dim>1</dim>
				</port>
			</input>
			<output>
				<port id="2" precision="FP32" names="batch_norm_28.tmp_2,p2o.Mul.62">
					<dim>-1</dim>
					<dim>120</dim>
					<dim>1</dim>
					<dim>-1</dim>
				</port>
			</output>
		</layer>
		<layer id="255" name="p2o.Mul.63" type="Swish" version="opset4">
			<input>
				<port id="0" precision="FP32">
					<dim>-1</dim>
					<dim>120</dim>
					<dim>1</dim>
					<dim>-1</dim>
				</port>
			</input>
			<output>
				<port id="1" precision="FP32" names="swish_8.tmp_0">
					<dim>-1</dim>
					<dim>120</dim>
					<dim>1</dim>
					<dim>-1</dim>
				</port>
			</output>
		</layer>
		<layer id="256" name="p2o.Shape.2" type="ShapeOf" version="opset3">
			<data output_type="i64" />
			<input>
				<port id="0" precision="FP32">
					<dim>-1</dim>
					<dim>120</dim>
					<dim>1</dim>
					<dim>-1</dim>
				</port>
			</input>
			<output>
				<port id="1" precision="I64" names="p2o.Shape.1,p2o.Shape.3">
					<dim>4</dim>
				</port>
			</output>
		</layer>
		<layer id="257" name="p2o.helper.constant.66" type="Const" version="opset1">
			<data element_type="i64" shape="1" offset="2626950" size="8" />
			<output>
				<port id="0" precision="I64" names="p2o.helper.constant.66">
					<dim>1</dim>
				</port>
			</output>
		</layer>
		<layer id="258" name="p2o.helper.constant.67" type="Const" version="opset1">
			<data element_type="i64" shape="1" offset="2626958" size="8" />
			<output>
				<port id="0" precision="I64" names="p2o.helper.constant.67">
					<dim>1</dim>
				</port>
			</output>
		</layer>
		<layer id="259" name="Broadcast_1184" type="Const" version="opset1">
			<data element_type="i64" shape="1" offset="2626966" size="8" />
			<output>
				<port id="0" precision="I64">
					<dim>1</dim>
				</port>
			</output>
		</layer>
		<layer id="260" name="p2o.Slice.1" type="StridedSlice" version="opset1">
			<data begin_mask="0" end_mask="0" new_axis_mask="" shrink_axis_mask="" ellipsis_mask="" />
			<input>
				<port id="0" precision="I64">
					<dim>4</dim>
				</port>
				<port id="1" precision="I64">
					<dim>1</dim>
				</port>
				<port id="2" precision="I64">
					<dim>1</dim>
				</port>
				<port id="3" precision="I64">
					<dim>1</dim>
				</port>
			</input>
			<output>
				<port id="4" precision="I64" names="p2o.helper.slice.0">
					<dim>2</dim>
				</port>
			</output>
		</layer>
		<layer id="261" name="p2o.helper.constant.64" type="Const" version="opset1">
			<data element_type="i64" shape="1" offset="2626974" size="8" />
			<output>
				<port id="0" precision="I64" names="p2o.helper.constant.64">
					<dim>1</dim>
				</port>
			</output>
		</layer>
		<layer id="262" name="p2o.Concat.0" type="Concat" version="opset1">
			<data axis="0" />
			<input>
				<port id="0" precision="I64">
					<dim>2</dim>
				</port>
				<port id="1" precision="I64">
					<dim>1</dim>
				</port>
			</input>
			<output>
				<port id="2" precision="I64" names="p2o.Concat.1">
					<dim>3</dim>
				</port>
			</output>
		</layer>
		<layer id="263" name="p2o.Reshape.4" type="Reshape" version="opset1">
			<data special_zero="true" />
			<input>
				<port id="0" precision="FP32">
					<dim>-1</dim>
					<dim>120</dim>
					<dim>1</dim>
					<dim>-1</dim>
				</port>
				<port id="1" precision="I64">
					<dim>3</dim>
				</port>
			</input>
			<output>
				<port id="2" precision="FP32" names="flatten_0.tmp_0">
					<dim>-1</dim>
					<dim>120</dim>
					<dim>-1</dim>
				</port>
			</output>
		</layer>
		<layer id="264" name="Constant_1197" type="Const" version="opset1">
			<data element_type="i64" shape="3" offset="2626982" size="24" />
			<output>
				<port id="0" precision="I64">
					<dim>3</dim>
				</port>
			</output>
		</layer>
		<layer id="265" name="p2o.Transpose.0" type="Transpose" version="opset1">
			<input>
				<port id="0" precision="FP32">
					<dim>-1</dim>
					<dim>120</dim>
					<dim>-1</dim>
				</port>
				<port id="1" precision="I64">
					<dim>3</dim>
				</port>
			</input>
			<output>
				<port id="2" precision="FP32" names="transpose_0.tmp_0">
					<dim>-1</dim>
					<dim>-1</dim>
					<dim>120</dim>
				</port>
			</output>
		</layer>
		<layer id="266" name="Constant_1201" type="Const" version="opset1">
			<data element_type="i64" shape="1" offset="2626974" size="8" />
			<output>
				<port id="0" precision="I64">
					<dim>1</dim>
				</port>
			</output>
		</layer>
		<layer id="267" name="p2o.Div.27" type="MVN" version="opset6">
			<data eps="9.9999997473787516e-06" normalize_variance="true" eps_mode="INSIDE_SQRT" />
			<input>
				<port id="0" precision="FP32">
					<dim>-1</dim>
					<dim>-1</dim>
					<dim>120</dim>
				</port>
				<port id="1" precision="I64">
					<dim>1</dim>
				</port>
			</input>
			<output>
				<port id="2" precision="FP32" names="p2o.Div.28">
					<dim>-1</dim>
					<dim>-1</dim>
					<dim>120</dim>
				</port>
			</output>
		</layer>
		<layer id="268" name="Constant_9205_compressed" type="Const" version="opset1">
			<data element_type="f16" shape="1, 1, 120" offset="2627006" size="240" />
			<output>
				<port id="0" precision="FP16">
					<dim>1</dim>
					<dim>1</dim>
					<dim>120</dim>
				</port>
			</output>
		</layer>
		<layer id="269" name="Constant_9205" type="Convert" version="opset1">
			<data destination_type="f32" />
			<rt_info>
				<attribute name="decompression" version="0" />
			</rt_info>
			<input>
				<port id="0" precision="FP16">
					<dim>1</dim>
					<dim>1</dim>
					<dim>120</dim>
				</port>
			</input>
			<output>
				<port id="1" precision="FP32">
					<dim>1</dim>
					<dim>1</dim>
					<dim>120</dim>
				</port>
			</output>
		</layer>
		<layer id="270" name="p2o.Mul.64" type="Multiply" version="opset1">
			<data auto_broadcast="numpy" />
			<input>
				<port id="0" precision="FP32">
					<dim>-1</dim>
					<dim>-1</dim>
					<dim>120</dim>
				</port>
				<port id="1" precision="FP32">
					<dim>1</dim>
					<dim>1</dim>
					<dim>120</dim>
				</port>
			</input>
			<output>
				<port id="2" precision="FP32" names="p2o.Mul.65">
					<dim>-1</dim>
					<dim>-1</dim>
					<dim>120</dim>
				</port>
			</output>
		</layer>
		<layer id="271" name="Constant_9206_compressed" type="Const" version="opset1">
			<data element_type="f16" shape="1, 1, 120" offset="2627246" size="240" />
			<output>
				<port id="0" precision="FP16">
					<dim>1</dim>
					<dim>1</dim>
					<dim>120</dim>
				</port>
			</output>
		</layer>
		<layer id="272" name="Constant_9206" type="Convert" version="opset1">
			<data destination_type="f32" />
			<rt_info>
				<attribute name="decompression" version="0" />
			</rt_info>
			<input>
				<port id="0" precision="FP16">
					<dim>1</dim>
					<dim>1</dim>
					<dim>120</dim>
				</port>
			</input>
			<output>
				<port id="1" precision="FP32">
					<dim>1</dim>
					<dim>1</dim>
					<dim>120</dim>
				</port>
			</output>
		</layer>
		<layer id="273" name="p2o.Add.64" type="Add" version="opset1">
			<data auto_broadcast="numpy" />
			<input>
				<port id="0" precision="FP32">
					<dim>-1</dim>
					<dim>-1</dim>
					<dim>120</dim>
				</port>
				<port id="1" precision="FP32">
					<dim>1</dim>
					<dim>1</dim>
					<dim>120</dim>
				</port>
			</input>
			<output>
				<port id="2" precision="FP32" names="p2o.Add.65">
					<dim>-1</dim>
					<dim>-1</dim>
					<dim>120</dim>
				</port>
			</output>
		</layer>
		<layer id="274" name="Constant_6035_compressed" type="Const" version="opset1">
			<data element_type="f16" shape="360, 120" offset="2627486" size="86400" />
			<output>
				<port id="0" precision="FP16">
					<dim>360</dim>
					<dim>120</dim>
				</port>
			</output>
		</layer>
		<layer id="275" name="Constant_6035" type="Convert" version="opset1">
			<data destination_type="f32" />
			<rt_info>
				<attribute name="decompression" version="0" />
			</rt_info>
			<input>
				<port id="0" precision="FP16">
					<dim>360</dim>
					<dim>120</dim>
				</port>
			</input>
			<output>
				<port id="1" precision="FP32">
					<dim>360</dim>
					<dim>120</dim>
				</port>
			</output>
		</layer>
		<layer id="276" name="p2o.MatMul.0" type="MatMul" version="opset1">
			<data transpose_a="false" transpose_b="true" />
			<input>
				<port id="0" precision="FP32">
					<dim>-1</dim>
					<dim>-1</dim>
					<dim>120</dim>
				</port>
				<port id="1" precision="FP32">
					<dim>360</dim>
					<dim>120</dim>
				</port>
			</input>
			<output>
				<port id="2" precision="FP32" names="p2o.MatMul.1">
					<dim>-1</dim>
					<dim>-1</dim>
					<dim>360</dim>
				</port>
			</output>
		</layer>
		<layer id="277" name="Constant_9207_compressed" type="Const" version="opset1">
			<data element_type="f16" shape="1, 1, 360" offset="2713886" size="720" />
			<output>
				<port id="0" precision="FP16">
					<dim>1</dim>
					<dim>1</dim>
					<dim>360</dim>
				</port>
			</output>
		</layer>
		<layer id="278" name="Constant_9207" type="Convert" version="opset1">
			<data destination_type="f32" />
			<rt_info>
				<attribute name="decompression" version="0" />
			</rt_info>
			<input>
				<port id="0" precision="FP16">
					<dim>1</dim>
					<dim>1</dim>
					<dim>360</dim>
				</port>
			</input>
			<output>
				<port id="1" precision="FP32">
					<dim>1</dim>
					<dim>1</dim>
					<dim>360</dim>
				</port>
			</output>
		</layer>
		<layer id="279" name="p2o.Add.66" type="Add" version="opset1">
			<data auto_broadcast="numpy" />
			<input>
				<port id="0" precision="FP32">
					<dim>-1</dim>
					<dim>-1</dim>
					<dim>360</dim>
				</port>
				<port id="1" precision="FP32">
					<dim>1</dim>
					<dim>1</dim>
					<dim>360</dim>
				</port>
			</input>
			<output>
				<port id="2" precision="FP32" names="p2o.Add.67">
					<dim>-1</dim>
					<dim>-1</dim>
					<dim>360</dim>
				</port>
			</output>
		</layer>
		<layer id="280" name="p2o.Cast.2" type="Const" version="opset1">
			<data element_type="i64" shape="1" offset="2626950" size="8" />
			<output>
				<port id="0" precision="I64" names="p2o.Cast.3">
					<dim>1</dim>
				</port>
			</output>
		</layer>
		<layer id="281" name="p2o.Shape.6" type="ShapeOf" version="opset3">
			<data output_type="i64" />
			<input>
				<port id="0" precision="FP32">
					<dim>-1</dim>
					<dim>-1</dim>
					<dim>120</dim>
				</port>
			</input>
			<output>
				<port id="1" precision="I64" names="p2o.Shape.7">
					<dim>3</dim>
				</port>
			</output>
		</layer>
		<layer id="282" name="p2o.Cast.1" type="Convert" version="opset1">
			<data destination_type="i32" />
			<input>
				<port id="0" precision="I64">
					<dim>3</dim>
				</port>
			</input>
			<output>
				<port id="1" precision="I32" names="shape_1.tmp_0">
					<dim>3</dim>
				</port>
			</output>
		</layer>
		<layer id="283" name="p2o.helper.constant.75" type="Const" version="opset1">
			<data element_type="i64" shape="1" offset="2626966" size="8" />
			<output>
				<port id="0" precision="I64" names="p2o.helper.constant.75">
					<dim>1</dim>
				</port>
			</output>
		</layer>
		<layer id="284" name="p2o.helper.constant.76" type="Const" version="opset1">
			<data element_type="i64" shape="1" offset="2626958" size="8" />
			<output>
				<port id="0" precision="I64" names="p2o.helper.constant.76">
					<dim>1</dim>
				</port>
			</output>
		</layer>
		<layer id="285" name="p2o.helper.constant.77" type="Const" version="opset1">
			<data element_type="i64" shape="1" offset="2626966" size="8" />
			<output>
				<port id="0" precision="I64" names="p2o.helper.constant.77">
					<dim>1</dim>
				</port>
			</output>
		</layer>
		<layer id="286" name="p2o.Slice.3" type="StridedSlice" version="opset1">
			<data begin_mask="0" end_mask="0" new_axis_mask="" shrink_axis_mask="" ellipsis_mask="" />
			<input>
				<port id="0" precision="I32">
					<dim>3</dim>
				</port>
				<port id="1" precision="I64">
					<dim>1</dim>
				</port>
				<port id="2" precision="I64">
					<dim>1</dim>
				</port>
				<port id="3" precision="I64">
					<dim>1</dim>
				</port>
			</input>
			<output>
				<port id="4" precision="I32" names="shape_1.tmp_0_slice_1">
					<dim>1</dim>
				</port>
			</output>
		</layer>
		<layer id="287" name="p2o.Cast.4" type="Convert" version="opset1">
			<data destination_type="i64" />
			<input>
				<port id="0" precision="I32">
					<dim>1</dim>
				</port>
			</input>
			<output>
				<port id="1" precision="I64" names="p2o.Cast.5">
					<dim>1</dim>
				</port>
			</output>
		</layer>
		<layer id="288" name="p2o.Cast.6" type="Const" version="opset1">
			<data element_type="i64" shape="1" offset="2714606" size="8" />
			<output>
				<port id="0" precision="I64" names="p2o.Cast.7">
					<dim>1</dim>
				</port>
			</output>
		</layer>
		<layer id="289" name="p2o.Cast.8" type="Const" version="opset1">
			<data element_type="i64" shape="1" offset="2714614" size="8" />
			<output>
				<port id="0" precision="I64" names="p2o.Cast.9">
					<dim>1</dim>
				</port>
			</output>
		</layer>
		<layer id="290" name="p2o.Cast.10" type="Const" version="opset1">
			<data element_type="i64" shape="1" offset="2714622" size="8" />
			<output>
				<port id="0" precision="I64" names="p2o.Cast.11">
					<dim>1</dim>
				</port>
			</output>
		</layer>
		<layer id="291" name="p2o.Concat.2" type="Concat" version="opset1">
			<data axis="0" />
			<input>
				<port id="0" precision="I64">
					<dim>1</dim>
				</port>
				<port id="1" precision="I64">
					<dim>1</dim>
				</port>
				<port id="2" precision="I64">
					<dim>1</dim>
				</port>
				<port id="3" precision="I64">
					<dim>1</dim>
				</port>
				<port id="4" precision="I64">
					<dim>1</dim>
				</port>
			</input>
			<output>
				<port id="5" precision="I64" names="p2o.helper.concat.0">
					<dim>5</dim>
				</port>
			</output>
		</layer>
		<layer id="292" name="p2o.Reshape.7" type="Reshape" version="opset1">
			<data special_zero="true" />
			<input>
				<port id="0" precision="FP32">
					<dim>-1</dim>
					<dim>-1</dim>
					<dim>360</dim>
				</port>
				<port id="1" precision="I64">
					<dim>5</dim>
				</port>
			</input>
			<output>
				<port id="2" precision="FP32" names="reshape2_4.tmp_0">
					<dim>-1</dim>
					<dim>-1</dim>
					<dim>3</dim>
					<dim>8</dim>
					<dim>15</dim>
				</port>
			</output>
		</layer>
		<layer id="293" name="Constant_1286" type="Const" version="opset1">
			<data element_type="i64" shape="5" offset="2714630" size="40" />
			<output>
				<port id="0" precision="I64">
					<dim>5</dim>
				</port>
			</output>
		</layer>
		<layer id="294" name="p2o.Transpose.1" type="Transpose" version="opset1">
			<input>
				<port id="0" precision="FP32">
					<dim>-1</dim>
					<dim>-1</dim>
					<dim>3</dim>
					<dim>8</dim>
					<dim>15</dim>
				</port>
				<port id="1" precision="I64">
					<dim>5</dim>
				</port>
			</input>
			<output>
				<port id="2" precision="FP32" names="transpose_1.tmp_0">
					<dim>3</dim>
					<dim>-1</dim>
					<dim>8</dim>
					<dim>-1</dim>
					<dim>15</dim>
				</port>
			</output>
		</layer>
		<layer id="295" name="p2o.helper.constant.79" type="Const" version="opset1">
			<data element_type="i64" shape="1" offset="2626950" size="8" />
			<output>
				<port id="0" precision="I64" names="p2o.helper.constant.79">
					<dim>1</dim>
				</port>
			</output>
		</layer>
		<layer id="296" name="p2o.helper.constant.80" type="Const" version="opset1">
			<data element_type="i64" shape="1" offset="2626966" size="8" />
			<output>
				<port id="0" precision="I64" names="p2o.helper.constant.80">
					<dim>1</dim>
				</port>
			</output>
		</layer>
		<layer id="297" name="p2o.helper.constant.81" type="Const" version="opset1">
			<data element_type="i64" shape="1" offset="2626966" size="8" />
			<output>
				<port id="0" precision="I64" names="p2o.helper.constant.81">
					<dim>1</dim>
				</port>
			</output>
		</layer>
		<layer id="298" name="p2o.Slice.4" type="StridedSlice" version="opset1">
			<data begin_mask="0" end_mask="0" new_axis_mask="" shrink_axis_mask="" ellipsis_mask="" />
			<input>
				<port id="0" precision="FP32">
					<dim>3</dim>
					<dim>-1</dim>
					<dim>8</dim>
					<dim>-1</dim>
					<dim>15</dim>
				</port>
				<port id="1" precision="I64">
					<dim>1</dim>
				</port>
				<port id="2" precision="I64">
					<dim>1</dim>
				</port>
				<port id="3" precision="I64">
					<dim>1</dim>
				</port>
			</input>
			<output>
				<port id="4" precision="FP32" names="p2o.Slice.5">
					<dim>1</dim>
					<dim>-1</dim>
					<dim>8</dim>
					<dim>-1</dim>
					<dim>15</dim>
				</port>
			</output>
		</layer>
		<layer id="299" name="Constant_1293" type="Const" version="opset1">
			<data element_type="i64" shape="1" offset="2626950" size="8" />
			<output>
				<port id="0" precision="I64">
					<dim>1</dim>
				</port>
			</output>
		</layer>
		<layer id="300" name="p2o.Squeeze.0" type="Squeeze" version="opset1">
			<input>
				<port id="0" precision="FP32">
					<dim>1</dim>
					<dim>-1</dim>
					<dim>8</dim>
					<dim>-1</dim>
					<dim>15</dim>
				</port>
				<port id="1" precision="I64">
					<dim>1</dim>
				</port>
			</input>
			<output>
				<port id="2" precision="FP32" names="transpose_1.tmp_0_slice_0">
					<dim>-1</dim>
					<dim>8</dim>
					<dim>-1</dim>
					<dim>15</dim>
				</port>
			</output>
		</layer>
		<layer id="301" name="Constant_9208_compressed" type="Const" version="opset1">
			<data element_type="f16" shape="1, 1, 1, 1" offset="2714670" size="2" />
			<output>
				<port id="0" precision="FP16">
					<dim>1</dim>
					<dim>1</dim>
					<dim>1</dim>
					<dim>1</dim>
				</port>
			</output>
		</layer>
		<layer id="302" name="Constant_9208" type="Convert" version="opset1">
			<data destination_type="f32" />
			<rt_info>
				<attribute name="decompression" version="0" />
			</rt_info>
			<input>
				<port id="0" precision="FP16">
					<dim>1</dim>
					<dim>1</dim>
					<dim>1</dim>
					<dim>1</dim>
				</port>
			</input>
			<output>
				<port id="1" precision="FP32">
					<dim>1</dim>
					<dim>1</dim>
					<dim>1</dim>
					<dim>1</dim>
				</port>
			</output>
		</layer>
		<layer id="303" name="p2o.Mul.66" type="Multiply" version="opset1">
			<data auto_broadcast="numpy" />
			<input>
				<port id="0" precision="FP32">
					<dim>-1</dim>
					<dim>8</dim>
					<dim>-1</dim>
					<dim>15</dim>
				</port>
				<port id="1" precision="FP32">
					<dim>1</dim>
					<dim>1</dim>
					<dim>1</dim>
					<dim>1</dim>
				</port>
			</input>
			<output>
				<port id="2" precision="FP32" names="p2o.Mul.67">
					<dim>-1</dim>
					<dim>8</dim>
					<dim>-1</dim>
					<dim>15</dim>
				</port>
			</output>
		</layer>
		<layer id="304" name="p2o.helper.constant.84" type="Const" version="opset1">
			<data element_type="i64" shape="1" offset="2626966" size="8" />
			<output>
				<port id="0" precision="I64" names="p2o.helper.constant.84">
					<dim>1</dim>
				</port>
			</output>
		</layer>
		<layer id="305" name="p2o.helper.constant.85" type="Const" version="opset1">
			<data element_type="i64" shape="1" offset="2626958" size="8" />
			<output>
				<port id="0" precision="I64" names="p2o.helper.constant.85">
					<dim>1</dim>
				</port>
			</output>
		</layer>
		<layer id="306" name="p2o.helper.constant.86" type="Const" version="opset1">
			<data element_type="i64" shape="1" offset="2626966" size="8" />
			<output>
				<port id="0" precision="I64" names="p2o.helper.constant.86">
					<dim>1</dim>
				</port>
			</output>
		</layer>
		<layer id="307" name="p2o.Slice.6" type="StridedSlice" version="opset1">
			<data begin_mask="0" end_mask="0" new_axis_mask="" shrink_axis_mask="" ellipsis_mask="" />
			<input>
				<port id="0" precision="FP32">
					<dim>3</dim>
					<dim>-1</dim>
					<dim>8</dim>
					<dim>-1</dim>
					<dim>15</dim>
				</port>
				<port id="1" precision="I64">
					<dim>1</dim>
				</port>
				<port id="2" precision="I64">
					<dim>1</dim>
				</port>
				<port id="3" precision="I64">
					<dim>1</dim>
				</port>
			</input>
			<output>
				<port id="4" precision="FP32" names="p2o.Slice.7">
					<dim>1</dim>
					<dim>-1</dim>
					<dim>8</dim>
					<dim>-1</dim>
					<dim>15</dim>
				</port>
			</output>
		</layer>
		<layer id="308" name="Constant_1302" type="Const" version="opset1">
			<data element_type="i64" shape="1" offset="2626950" size="8" />
			<output>
				<port id="0" precision="I64">
					<dim>1</dim>
				</port>
			</output>
		</layer>
		<layer id="309" name="p2o.Squeeze.1" type="Squeeze" version="opset1">
			<input>
				<port id="0" precision="FP32">
					<dim>1</dim>
					<dim>-1</dim>
					<dim>8</dim>
					<dim>-1</dim>
					<dim>15</dim>
				</port>
				<port id="1" precision="I64">
					<dim>1</dim>
				</port>
			</input>
			<output>
				<port id="2" precision="FP32" names="transpose_1.tmp_0_slice_1">
					<dim>-1</dim>
					<dim>8</dim>
					<dim>-1</dim>
					<dim>15</dim>
				</port>
			</output>
		</layer>
		<layer id="310" name="p2o.MatMul.2" type="MatMul" version="opset1">
			<data transpose_a="false" transpose_b="true" />
			<input>
				<port id="0" precision="FP32">
					<dim>-1</dim>
					<dim>8</dim>
					<dim>-1</dim>
					<dim>15</dim>
				</port>
				<port id="1" precision="FP32">
					<dim>-1</dim>
					<dim>8</dim>
					<dim>-1</dim>
					<dim>15</dim>
				</port>
			</input>
			<output>
				<port id="2" precision="FP32" names="p2o.MatMul.3">
					<dim>-1</dim>
					<dim>8</dim>
					<dim>-1</dim>
					<dim>-1</dim>
				</port>
			</output>
		</layer>
		<layer id="311" name="ShapeOf_1314" type="ShapeOf" version="opset1">
			<input>
				<port id="0" precision="FP32">
					<dim>-1</dim>
					<dim>8</dim>
					<dim>-1</dim>
					<dim>-1</dim>
				</port>
			</input>
			<output>
				<port id="1" precision="I64">
					<dim>4</dim>
				</port>
			</output>
		</layer>
		<layer id="312" name="Constant_1317" type="Const" version="opset1">
			<data element_type="i64" shape="1" offset="2626950" size="8" />
			<output>
				<port id="0" precision="I64">
					<dim>1</dim>
				</port>
			</output>
		</layer>
		<layer id="313" name="Constant_1316" type="Const" version="opset1">
			<data element_type="i64" shape="1" offset="2714606" size="8" />
			<output>
				<port id="0" precision="I64">
					<dim>1</dim>
				</port>
			</output>
		</layer>
		<layer id="314" name="Constant_1318" type="Const" version="opset1">
			<data element_type="i64" shape="1" offset="2626966" size="8" />
			<output>
				<port id="0" precision="I64">
					<dim>1</dim>
				</port>
			</output>
		</layer>
		<layer id="315" name="StridedSlice_1319" type="StridedSlice" version="opset1">
			<data begin_mask="0" end_mask="0" new_axis_mask="" shrink_axis_mask="" ellipsis_mask="" />
			<input>
				<port id="0" precision="I64">
					<dim>4</dim>
				</port>
				<port id="1" precision="I64">
					<dim>1</dim>
				</port>
				<port id="2" precision="I64">
					<dim>1</dim>
				</port>
				<port id="3" precision="I64">
					<dim>1</dim>
				</port>
			</input>
			<output>
				<port id="4" precision="I64">
					<dim>3</dim>
				</port>
			</output>
		</layer>
		<layer id="316" name="Constant_1320" type="Const" version="opset1">
			<data element_type="i64" shape="" offset="2626950" size="8" />
			<output>
				<port id="0" precision="I64" />
			</output>
		</layer>
		<layer id="317" name="ReduceProd_1321" type="ReduceProd" version="opset1">
			<data keep_dims="true" />
			<input>
				<port id="0" precision="I64">
					<dim>3</dim>
				</port>
				<port id="1" precision="I64" />
			</input>
			<output>
				<port id="2" precision="I64">
					<dim>1</dim>
				</port>
			</output>
		</layer>
		<layer id="318" name="Constant_1322" type="Const" version="opset1">
			<data element_type="i64" shape="1" offset="2626974" size="8" />
			<output>
				<port id="0" precision="I64">
					<dim>1</dim>
				</port>
			</output>
		</layer>
		<layer id="319" name="Concat_1323" type="Concat" version="opset1">
			<data axis="0" />
			<input>
				<port id="0" precision="I64">
					<dim>1</dim>
				</port>
				<port id="1" precision="I64">
					<dim>1</dim>
				</port>
			</input>
			<output>
				<port id="2" precision="I64">
					<dim>2</dim>
				</port>
			</output>
		</layer>
		<layer id="320" name="Reshape_1324" type="Reshape" version="opset1">
			<data special_zero="true" />
			<input>
				<port id="0" precision="FP32">
					<dim>-1</dim>
					<dim>8</dim>
					<dim>-1</dim>
					<dim>-1</dim>
				</port>
				<port id="1" precision="I64">
					<dim>2</dim>
				</port>
			</input>
			<output>
				<port id="2" precision="FP32">
					<dim>-1</dim>
					<dim>-1</dim>
				</port>
			</output>
		</layer>
		<layer id="321" name="Softmax_1336" type="SoftMax" version="opset8">
			<data axis="1" />
			<input>
				<port id="0" precision="FP32">
					<dim>-1</dim>
					<dim>-1</dim>
				</port>
			</input>
			<output>
				<port id="1" precision="FP32">
					<dim>-1</dim>
					<dim>-1</dim>
				</port>
			</output>
		</layer>
		<layer id="322" name="p2o.Softmax.0" type="Reshape" version="opset1">
			<data special_zero="false" />
			<input>
				<port id="0" precision="FP32">
					<dim>-1</dim>
					<dim>-1</dim>
				</port>
				<port id="1" precision="I64">
					<dim>4</dim>
				</port>
			</input>
			<output>
				<port id="2" precision="FP32" names="softmax_0.tmp_0">
					<dim>-1</dim>
					<dim>8</dim>
					<dim>-1</dim>
					<dim>-1</dim>
				</port>
			</output>
		</layer>
		<layer id="323" name="p2o.helper.constant.88" type="Const" version="opset1">
			<data element_type="i64" shape="1" offset="2626958" size="8" />
			<output>
				<port id="0" precision="I64" names="p2o.helper.constant.88">
					<dim>1</dim>
				</port>
			</output>
		</layer>
		<layer id="324" name="p2o.helper.constant.89" type="Const" version="opset1">
			<data element_type="i64" shape="1" offset="2714606" size="8" />
			<output>
				<port id="0" precision="I64" names="p2o.helper.constant.89">
					<dim>1</dim>
				</port>
			</output>
		</layer>
		<layer id="325" name="p2o.helper.constant.90" type="Const" version="opset1">
			<data element_type="i64" shape="1" offset="2626966" size="8" />
			<output>
				<port id="0" precision="I64" names="p2o.helper.constant.90">
					<dim>1</dim>
				</port>
			</output>
		</layer>
		<layer id="326" name="p2o.Slice.8" type="StridedSlice" version="opset1">
			<data begin_mask="0" end_mask="0" new_axis_mask="" shrink_axis_mask="" ellipsis_mask="" />
			<input>
				<port id="0" precision="FP32">
					<dim>3</dim>
					<dim>-1</dim>
					<dim>8</dim>
					<dim>-1</dim>
					<dim>15</dim>
				</port>
				<port id="1" precision="I64">
					<dim>1</dim>
				</port>
				<port id="2" precision="I64">
					<dim>1</dim>
				</port>
				<port id="3" precision="I64">
					<dim>1</dim>
				</port>
			</input>
			<output>
				<port id="4" precision="FP32" names="p2o.Slice.9">
					<dim>1</dim>
					<dim>-1</dim>
					<dim>8</dim>
					<dim>-1</dim>
					<dim>15</dim>
				</port>
			</output>
		</layer>
		<layer id="327" name="Constant_1309" type="Const" version="opset1">
			<data element_type="i64" shape="1" offset="2626950" size="8" />
			<output>
				<port id="0" precision="I64">
					<dim>1</dim>
				</port>
			</output>
		</layer>
		<layer id="328" name="p2o.Squeeze.2" type="Squeeze" version="opset1">
			<input>
				<port id="0" precision="FP32">
					<dim>1</dim>
					<dim>-1</dim>
					<dim>8</dim>
					<dim>-1</dim>
					<dim>15</dim>
				</port>
				<port id="1" precision="I64">
					<dim>1</dim>
				</port>
			</input>
			<output>
				<port id="2" precision="FP32" names="transpose_1.tmp_0_slice_2">
					<dim>-1</dim>
					<dim>8</dim>
					<dim>-1</dim>
					<dim>15</dim>
				</port>
			</output>
		</layer>
		<layer id="329" name="p2o.MatMul.4" type="MatMul" version="opset1">
			<data transpose_a="false" transpose_b="false" />
			<input>
				<port id="0" precision="FP32">
					<dim>-1</dim>
					<dim>8</dim>
					<dim>-1</dim>
					<dim>-1</dim>
				</port>
				<port id="1" precision="FP32">
					<dim>-1</dim>
					<dim>8</dim>
					<dim>-1</dim>
					<dim>15</dim>
				</port>
			</input>
			<output>
				<port id="2" precision="FP32" names="p2o.MatMul.5">
					<dim>-1</dim>
					<dim>8</dim>
					<dim>-1</dim>
					<dim>15</dim>
				</port>
			</output>
		</layer>
		<layer id="330" name="Constant_1346" type="Const" version="opset1">
			<data element_type="i64" shape="4" offset="2714672" size="32" />
			<output>
				<port id="0" precision="I64">
					<dim>4</dim>
				</port>
			</output>
		</layer>
		<layer id="331" name="p2o.Transpose.3" type="Transpose" version="opset1">
			<input>
				<port id="0" precision="FP32">
					<dim>-1</dim>
					<dim>8</dim>
					<dim>-1</dim>
					<dim>15</dim>
				</port>
				<port id="1" precision="I64">
					<dim>4</dim>
				</port>
			</input>
			<output>
				<port id="2" precision="FP32" names="transpose_3.tmp_0">
					<dim>-1</dim>
					<dim>-1</dim>
					<dim>8</dim>
					<dim>15</dim>
				</port>
			</output>
		</layer>
		<layer id="332" name="p2o.Cast.12" type="Const" version="opset1">
			<data element_type="i64" shape="1" offset="2626950" size="8" />
			<output>
				<port id="0" precision="I64" names="p2o.Cast.13">
					<dim>1</dim>
				</port>
			</output>
		</layer>
		<layer id="333" name="p2o.Cast.14" type="Convert" version="opset1">
			<data destination_type="i64" />
			<input>
				<port id="0" precision="I32">
					<dim>1</dim>
				</port>
			</input>
			<output>
				<port id="1" precision="I64" names="p2o.Cast.15">
					<dim>1</dim>
				</port>
			</output>
		</layer>
		<layer id="334" name="p2o.Cast.16" type="Const" version="opset1">
			<data element_type="i64" shape="1" offset="2714704" size="8" />
			<output>
				<port id="0" precision="I64" names="p2o.Cast.17">
					<dim>1</dim>
				</port>
			</output>
		</layer>
		<layer id="335" name="p2o.Concat.3" type="Concat" version="opset1">
			<data axis="0" />
			<input>
				<port id="0" precision="I64">
					<dim>1</dim>
				</port>
				<port id="1" precision="I64">
					<dim>1</dim>
				</port>
				<port id="2" precision="I64">
					<dim>1</dim>
				</port>
			</input>
			<output>
				<port id="3" precision="I64" names="p2o.helper.concat.1">
					<dim>3</dim>
				</port>
			</output>
		</layer>
		<layer id="336" name="p2o.Reshape.8" type="Reshape" version="opset1">
			<data special_zero="true" />
			<input>
				<port id="0" precision="FP32">
					<dim>-1</dim>
					<dim>-1</dim>
					<dim>8</dim>
					<dim>15</dim>
				</port>
				<port id="1" precision="I64">
					<dim>3</dim>
				</port>
			</input>
			<output>
				<port id="2" precision="FP32" names="reshape2_5.tmp_0">
					<dim>-1</dim>
					<dim>-1</dim>
					<dim>120</dim>
				</port>
			</output>
		</layer>
		<layer id="337" name="Constant_6039_compressed" type="Const" version="opset1">
			<data element_type="f16" shape="120, 120" offset="2714712" size="28800" />
			<output>
				<port id="0" precision="FP16">
					<dim>120</dim>
					<dim>120</dim>
				</port>
			</output>
		</layer>
		<layer id="338" name="Constant_6039" type="Convert" version="opset1">
			<data destination_type="f32" />
			<rt_info>
				<attribute name="decompression" version="0" />
			</rt_info>
			<input>
				<port id="0" precision="FP16">
					<dim>120</dim>
					<dim>120</dim>
				</port>
			</input>
			<output>
				<port id="1" precision="FP32">
					<dim>120</dim>
					<dim>120</dim>
				</port>
			</output>
		</layer>
		<layer id="339" name="p2o.MatMul.6" type="MatMul" version="opset1">
			<data transpose_a="false" transpose_b="true" />
			<input>
				<port id="0" precision="FP32">
					<dim>-1</dim>
					<dim>-1</dim>
					<dim>120</dim>
				</port>
				<port id="1" precision="FP32">
					<dim>120</dim>
					<dim>120</dim>
				</port>
			</input>
			<output>
				<port id="2" precision="FP32" names="p2o.MatMul.7">
					<dim>-1</dim>
					<dim>-1</dim>
					<dim>120</dim>
				</port>
			</output>
		</layer>
		<layer id="340" name="Constant_9209_compressed" type="Const" version="opset1">
			<data element_type="f16" shape="1, 1, 120" offset="2743512" size="240" />
			<output>
				<port id="0" precision="FP16">
					<dim>1</dim>
					<dim>1</dim>
					<dim>120</dim>
				</port>
			</output>
		</layer>
		<layer id="341" name="Constant_9209" type="Convert" version="opset1">
			<data destination_type="f32" />
			<rt_info>
				<attribute name="decompression" version="0" />
			</rt_info>
			<input>
				<port id="0" precision="FP16">
					<dim>1</dim>
					<dim>1</dim>
					<dim>120</dim>
				</port>
			</input>
			<output>
				<port id="1" precision="FP32">
					<dim>1</dim>
					<dim>1</dim>
					<dim>120</dim>
				</port>
			</output>
		</layer>
		<layer id="342" name="p2o.Add.68" type="Add" version="opset1">
			<data auto_broadcast="numpy" />
			<input>
				<port id="0" precision="FP32">
					<dim>-1</dim>
					<dim>-1</dim>
					<dim>120</dim>
				</port>
				<port id="1" precision="FP32">
					<dim>1</dim>
					<dim>1</dim>
					<dim>120</dim>
				</port>
			</input>
			<output>
				<port id="2" precision="FP32" names="p2o.Add.69">
					<dim>-1</dim>
					<dim>-1</dim>
					<dim>120</dim>
				</port>
			</output>
		</layer>
		<layer id="343" name="p2o.Add.70" type="Add" version="opset1">
			<data auto_broadcast="numpy" />
			<input>
				<port id="0" precision="FP32">
					<dim>-1</dim>
					<dim>-1</dim>
					<dim>120</dim>
				</port>
				<port id="1" precision="FP32">
					<dim>-1</dim>
					<dim>-1</dim>
					<dim>120</dim>
				</port>
			</input>
			<output>
				<port id="2" precision="FP32" names="p2o.Add.71">
					<dim>-1</dim>
					<dim>-1</dim>
					<dim>120</dim>
				</port>
			</output>
		</layer>
		<layer id="344" name="Constant_1398" type="Const" version="opset1">
			<data element_type="i64" shape="1" offset="2626974" size="8" />
			<output>
				<port id="0" precision="I64">
					<dim>1</dim>
				</port>
			</output>
		</layer>
		<layer id="345" name="p2o.Div.29" type="MVN" version="opset6">
			<data eps="9.9999997473787516e-06" normalize_variance="true" eps_mode="INSIDE_SQRT" />
			<input>
				<port id="0" precision="FP32">
					<dim>-1</dim>
					<dim>-1</dim>
					<dim>120</dim>
				</port>
				<port id="1" precision="I64">
					<dim>1</dim>
				</port>
			</input>
			<output>
				<port id="2" precision="FP32" names="p2o.Div.30">
					<dim>-1</dim>
					<dim>-1</dim>
					<dim>120</dim>
				</port>
			</output>
		</layer>
		<layer id="346" name="Constant_9210_compressed" type="Const" version="opset1">
			<data element_type="f16" shape="1, 1, 120" offset="2743752" size="240" />
			<output>
				<port id="0" precision="FP16">
					<dim>1</dim>
					<dim>1</dim>
					<dim>120</dim>
				</port>
			</output>
		</layer>
		<layer id="347" name="Constant_9210" type="Convert" version="opset1">
			<data destination_type="f32" />
			<rt_info>
				<attribute name="decompression" version="0" />
			</rt_info>
			<input>
				<port id="0" precision="FP16">
					<dim>1</dim>
					<dim>1</dim>
					<dim>120</dim>
				</port>
			</input>
			<output>
				<port id="1" precision="FP32">
					<dim>1</dim>
					<dim>1</dim>
					<dim>120</dim>
				</port>
			</output>
		</layer>
…
			</rt_info>
			<input>
				<port id="0" precision="FP16">
					<dim>1</dim>
					<dim>64</dim>
					<dim>1</dim>
					<dim>1</dim>
				</port>
			</input>
			<output>
				<port id="1" precision="FP32">
					<dim>1</dim>
					<dim>64</dim>
					<dim>1</dim>
					<dim>1</dim>
				</port>
			</output>
		</layer>
		<layer id="500" name="p2o.BatchNormalization.30" type="Add" version="opset1">
			<data auto_broadcast="numpy" />
			<input>
				<port id="0" precision="FP32">
					<dim>-1</dim>
					<dim>64</dim>
					<dim>1</dim>
					<dim>-1</dim>
				</port>
				<port id="1" precision="FP32">
					<dim>1</dim>
					<dim>64</dim>
					<dim>1</dim>
					<dim>1</dim>
				</port>
			</input>
			<output>
				<port id="2" precision="FP32" names="batch_norm_30.tmp_2,p2o.Mul.88">
					<dim>-1</dim>
					<dim>64</dim>
					<dim>1</dim>
					<dim>-1</dim>
				</port>
			</output>
		</layer>
		<layer id="501" name="p2o.Mul.89" type="Swish" version="opset4">
			<input>
				<port id="0" precision="FP32">
					<dim>-1</dim>
					<dim>64</dim>
					<dim>1</dim>
					<dim>-1</dim>
				</port>
			</input>
			<output>
				<port id="1" precision="FP32" names="swish_12.tmp_0">
					<dim>-1</dim>
					<dim>64</dim>
					<dim>1</dim>
					<dim>-1</dim>
				</port>
			</output>
		</layer>
		<layer id="502" name="Multiply_8852_compressed" type="Const" version="opset1">
			<data element_type="f16" shape="64, 64, 1, 1" offset="4397392" size="8192" />
			<output>
				<port id="0" precision="FP16">
					<dim>64</dim>
					<dim>64</dim>
					<dim>1</dim>
					<dim>1</dim>
				</port>
			</output>
		</layer>
		<layer id="503" name="Multiply_8852" type="Convert" version="opset1">
			<data destination_type="f32" />
			<rt_info>
				<attribute name="decompression" version="0" />
			</rt_info>
			<input>
				<port id="0" precision="FP16">
					<dim>64</dim>
					<dim>64</dim>
					<dim>1</dim>
					<dim>1</dim>
				</port>
			</input>
			<output>
				<port id="1" precision="FP32">
					<dim>64</dim>
					<dim>64</dim>
					<dim>1</dim>
					<dim>1</dim>
				</port>
			</output>
		</layer>
		<layer id="504" name="Multiply_8596" type="Convolution" version="opset1">
			<data strides="1, 1" dilations="1, 1" pads_begin="0, 0" pads_end="0, 0" auto_pad="explicit" />
			<input>
				<port id="0" precision="FP32">
					<dim>-1</dim>
					<dim>64</dim>
					<dim>1</dim>
					<dim>-1</dim>
				</port>
				<port id="1" precision="FP32">
					<dim>64</dim>
					<dim>64</dim>
					<dim>1</dim>
					<dim>1</dim>
				</port>
			</input>
			<output>
				<port id="2" precision="FP32">
					<dim>-1</dim>
					<dim>64</dim>
					<dim>1</dim>
					<dim>-1</dim>
				</port>
			</output>
		</layer>
		<layer id="505" name="Constant_8601_compressed" type="Const" version="opset1">
			<data element_type="f16" shape="1, 64, 1, 1" offset="4405584" size="128" />
			<output>
				<port id="0" precision="FP16">
					<dim>1</dim>
					<dim>64</dim>
					<dim>1</dim>
					<dim>1</dim>
				</port>
			</output>
		</layer>
		<layer id="506" name="Constant_8601" type="Convert" version="opset1">
			<data destination_type="f32" />
			<rt_info>
				<attribute name="decompression" version="0" />
			</rt_info>
			<input>
				<port id="0" precision="FP16">
					<dim>1</dim>
					<dim>64</dim>
					<dim>1</dim>
					<dim>1</dim>
				</port>
			</input>
			<output>
				<port id="1" precision="FP32">
					<dim>1</dim>
					<dim>64</dim>
					<dim>1</dim>
					<dim>1</dim>
				</port>
			</output>
		</layer>
		<layer id="507" name="p2o.BatchNormalization.31" type="Add" version="opset1">
			<data auto_broadcast="numpy" />
			<input>
				<port id="0" precision="FP32">
					<dim>-1</dim>
					<dim>64</dim>
					<dim>1</dim>
					<dim>-1</dim>
				</port>
				<port id="1" precision="FP32">
					<dim>1</dim>
					<dim>64</dim>
					<dim>1</dim>
					<dim>1</dim>
				</port>
			</input>
			<output>
				<port id="2" precision="FP32" names="batch_norm_31.tmp_2,p2o.Mul.91">
					<dim>-1</dim>
					<dim>64</dim>
					<dim>1</dim>
					<dim>-1</dim>
				</port>
			</output>
		</layer>
		<layer id="508" name="p2o.Mul.92" type="Swish" version="opset4">
			<input>
				<port id="0" precision="FP32">
					<dim>-1</dim>
					<dim>64</dim>
					<dim>1</dim>
					<dim>-1</dim>
				</port>
			</input>
			<output>
				<port id="1" precision="FP32" names="swish_13.tmp_0">
					<dim>-1</dim>
					<dim>64</dim>
					<dim>1</dim>
					<dim>-1</dim>
				</port>
			</output>
		</layer>
		<layer id="509" name="Constant_1729" type="Const" version="opset1">
			<data element_type="i64" shape="1" offset="2626958" size="8" />
			<output>
				<port id="0" precision="I64">
					<dim>1</dim>
				</port>
			</output>
		</layer>
		<layer id="510" name="p2o.Squeeze.6" type="Squeeze" version="opset1">
			<input>
				<port id="0" precision="FP32">
					<dim>-1</dim>
					<dim>64</dim>
					<dim>1</dim>
					<dim>-1</dim>
				</port>
				<port id="1" precision="I64">
					<dim>1</dim>
				</port>
			</input>
			<output>
				<port id="2" precision="FP32" names="squeeze_0.tmp_0">
					<dim>-1</dim>
					<dim>64</dim>
					<dim>-1</dim>
				</port>
			</output>
		</layer>
		<layer id="511" name="Constant_6076_compressed" type="Const" version="opset1">
			<data element_type="f16" shape="187, 64" offset="4405712" size="23936" />
			<output>
				<port id="0" precision="FP16">
					<dim>187</dim>
					<dim>64</dim>
				</port>
			</output>
		</layer>
		<layer id="512" name="Constant_6076" type="Convert" version="opset1">
			<data destination_type="f32" />
			<rt_info>
				<attribute name="decompression" version="0" />
			</rt_info>
			<input>
				<port id="0" precision="FP16">
					<dim>187</dim>
					<dim>64</dim>
				</port>
			</input>
			<output>
				<port id="1" precision="FP32">
					<dim>187</dim>
					<dim>64</dim>
				</port>
			</output>
		</layer>
		<layer id="513" name="p2o.MatMul.24" type="MatMul" version="opset1">
			<data transpose_a="true" transpose_b="true" />
			<input>
				<port id="0" precision="FP32">
					<dim>-1</dim>
					<dim>64</dim>
					<dim>-1</dim>
				</port>
				<port id="1" precision="FP32">
					<dim>187</dim>
					<dim>64</dim>
				</port>
			</input>
			<output>
				<port id="2" precision="FP32" names="p2o.MatMul.25">
					<dim>-1</dim>
					<dim>-1</dim>
					<dim>187</dim>
				</port>
			</output>
		</layer>
		<layer id="514" name="Constant_9225_compressed" type="Const" version="opset1">
			<data element_type="f16" shape="1, 1, 187" offset="4429648" size="374" />
			<output>
				<port id="0" precision="FP16">
					<dim>1</dim>
					<dim>1</dim>
					<dim>187</dim>
				</port>
			</output>
		</layer>
		<layer id="515" name="Constant_9225" type="Convert" version="opset1">
			<data destination_type="f32" />
			<rt_info>
				<attribute name="decompression" version="0" />
			</rt_info>
			<input>
				<port id="0" precision="FP16">
					<dim>1</dim>
					<dim>1</dim>
					<dim>187</dim>
				</port>
			</input>
			<output>
				<port id="1" precision="FP32">
					<dim>1</dim>
					<dim>1</dim>
					<dim>187</dim>
				</port>
			</output>
		</layer>
		<layer id="516" name="p2o.Add.106" type="Add" version="opset1">
			<data auto_broadcast="numpy" />
			<input>
				<port id="0" precision="FP32">
					<dim>-1</dim>
					<dim>-1</dim>
					<dim>187</dim>
				</port>
				<port id="1" precision="FP32">
					<dim>1</dim>
					<dim>1</dim>
					<dim>187</dim>
				</port>
			</input>
			<output>
				<port id="2" precision="FP32" names="p2o.Add.107">
					<dim>-1</dim>
					<dim>-1</dim>
					<dim>187</dim>
				</port>
			</output>
		</layer>
		<layer id="517" name="ShapeOf_1735" type="ShapeOf" version="opset1">
			<input>
				<port id="0" precision="FP32">
					<dim>-1</dim>
					<dim>-1</dim>
					<dim>187</dim>
				</port>
			</input>
			<output>
				<port id="1" precision="I64">
					<dim>3</dim>
				</port>
			</output>
		</layer>
		<layer id="518" name="Constant_1738" type="Const" version="opset1">
			<data element_type="i64" shape="1" offset="2626950" size="8" />
			<output>
				<port id="0" precision="I64">
					<dim>1</dim>
				</port>
			</output>
		</layer>
		<layer id="519" name="Constant_1737" type="Const" version="opset1">
			<data element_type="i64" shape="1" offset="2626958" size="8" />
			<output>
				<port id="0" precision="I64">
					<dim>1</dim>
				</port>
			</output>
		</layer>
		<layer id="520" name="Constant_1739" type="Const" version="opset1">
			<data element_type="i64" shape="1" offset="2626966" size="8" />
			<output>
				<port id="0" precision="I64">
					<dim>1</dim>
				</port>
			</output>
		</layer>
		<layer id="521" name="StridedSlice_1740" type="StridedSlice" version="opset1">
			<data begin_mask="0" end_mask="0" new_axis_mask="" shrink_axis_mask="" ellipsis_mask="" />
			<input>
				<port id="0" precision="I64">
					<dim>3</dim>
				</port>
				<port id="1" precision="I64">
					<dim>1</dim>
				</port>
				<port id="2" precision="I64">
					<dim>1</dim>
				</port>
				<port id="3" precision="I64">
					<dim>1</dim>
				</port>
			</input>
			<output>
				<port id="4" precision="I64">
					<dim>2</dim>
				</port>
			</output>
		</layer>
		<layer id="522" name="Constant_1741" type="Const" version="opset1">
			<data element_type="i64" shape="" offset="2626950" size="8" />
			<output>
				<port id="0" precision="I64" />
			</output>
		</layer>
		<layer id="523" name="ReduceProd_1742" type="ReduceProd" version="opset1">
			<data keep_dims="true" />
			<input>
				<port id="0" precision="I64">
					<dim>2</dim>
				</port>
				<port id="1" precision="I64" />
			</input>
			<output>
				<port id="2" precision="I64">
					<dim>1</dim>
				</port>
			</output>
		</layer>
		<layer id="524" name="Constant_1743" type="Const" version="opset1">
			<data element_type="i64" shape="1" offset="2626974" size="8" />
			<output>
				<port id="0" precision="I64">
					<dim>1</dim>
				</port>
			</output>
		</layer>
		<layer id="525" name="Concat_1744" type="Concat" version="opset1">
			<data axis="0" />
			<input>
				<port id="0" precision="I64">
					<dim>1</dim>
				</port>
				<port id="1" precision="I64">
					<dim>1</dim>
				</port>
			</input>
			<output>
				<port id="2" precision="I64">
					<dim>2</dim>
				</port>
			</output>
		</layer>
		<layer id="526" name="Reshape_1745" type="Reshape" version="opset1">
			<data special_zero="true" />
			<input>
				<port id="0" precision="FP32">
					<dim>-1</dim>
					<dim>-1</dim>
					<dim>187</dim>
				</port>
				<port id="1" precision="I64">
					<dim>2</dim>
				</port>
			</input>
			<output>
				<port id="2" precision="FP32">
					<dim>-1</dim>
					<dim>-1</dim>
				</port>
			</output>
		</layer>
		<layer id="527" name="Softmax_1757" type="SoftMax" version="opset8">
			<data axis="1" />
			<input>
				<port id="0" precision="FP32">
					<dim>-1</dim>
					<dim>-1</dim>
				</port>
			</input>
			<output>
				<port id="1" precision="FP32">
					<dim>-1</dim>
					<dim>-1</dim>
				</port>
			</output>
		</layer>
		<layer id="528" name="softmax_2.tmp_0" type="Reshape" version="opset1">
			<data special_zero="false" />
			<input>
				<port id="0" precision="FP32">
					<dim>-1</dim>
					<dim>-1</dim>
				</port>
				<port id="1" precision="I64">
					<dim>3</dim>
				</port>
			</input>
			<output>
				<port id="2" precision="FP32" names="softmax_2.tmp_0">
					<dim>-1</dim>
					<dim>-1</dim>
					<dim>187</dim>
				</port>
			</output>
		</layer>
		<layer id="529" name="softmax_2.tmp_0/sink_port_0" type="Result" version="opset1">
			<input>
				<port id="0" precision="FP32">
					<dim>-1</dim>
					<dim>-1</dim>
					<dim>187</dim>
				</port>
			</input>
		</layer>
	</layers>
	<edges>
		<edge from-layer="0" from-port="0" to-layer="3" to-port="0" />
		<edge from-layer="1" from-port="0" to-layer="2" to-port="0" />
		<edge from-layer="2" from-port="1" to-layer="3" to-port="1" />
		<edge from-layer="3" from-port="2" to-layer="6" to-port="0" />
		<edge from-layer="4" from-port="0" to-layer="5" to-port="0" />
		<edge from-layer="5" from-port="1" to-layer="6" to-port="1" />
		<edge from-layer="6" from-port="2" to-layer="7" to-port="0" />
		<edge from-layer="7" from-port="1" to-layer="10" to-port="0" />
		<edge from-layer="8" from-port="0" to-layer="9" to-port="0" />
		<edge from-layer="9" from-port="1" to-layer="10" to-port="1" />
		<edge from-layer="10" from-port="2" to-layer="13" to-port="0" />
		<edge from-layer="11" from-port="0" to-layer="12" to-port="0" />
		<edge from-layer="12" from-port="1" to-layer="13" to-port="1" />
		<edge from-layer="13" from-port="2" to-layer="14" to-port="0" />
		<edge from-layer="14" from-port="1" to-layer="17" to-port="0" />
		<edge from-layer="15" from-port="0" to-layer="16" to-port="0" />
		<edge from-layer="16" from-port="1" to-layer="17" to-port="1" />
		<edge from-layer="17" from-port="2" to-layer="20" to-port="0" />
		<edge from-layer="18" from-port="0" to-layer="19" to-port="0" />
		<edge from-layer="19" from-port="1" to-layer="20" to-port="1" />
		<edge from-layer="20" from-port="2" to-layer="21" to-port="0" />
		<edge from-layer="21" from-port="1" to-layer="24" to-port="0" />
		<edge from-layer="22" from-port="0" to-layer="23" to-port="0" />
		<edge from-layer="23" from-port="1" to-layer="24" to-port="1" />
		<edge from-layer="24" from-port="2" to-layer="27" to-port="0" />
		<edge from-layer="25" from-port="0" to-layer="26" to-port="0" />
		<edge from-layer="26" from-port="1" to-layer="27" to-port="1" />
		<edge from-layer="27" from-port="2" to-layer="28" to-port="0" />
		<edge from-layer="28" from-port="1" to-layer="31" to-port="0" />
		<edge from-layer="29" from-port="0" to-layer="30" to-port="0" />
		<edge from-layer="30" from-port="1" to-layer="31" to-port="1" />
		<edge from-layer="31" from-port="2" to-layer="34" to-port="0" />
		<edge from-layer="32" from-port="0" to-layer="33" to-port="0" />
		<edge from-layer="33" from-port="1" to-layer="34" to-port="1" />
		<edge from-layer="34" from-port="2" to-layer="35" to-port="0" />
		<edge from-layer="35" from-port="1" to-layer="38" to-port="0" />
		<edge from-layer="36" from-port="0" to-layer="37" to-port="0" />
		<edge from-layer="37" from-port="1" to-layer="38" to-port="1" />
		<edge from-layer="38" from-port="2" to-layer="41" to-port="0" />
		<edge from-layer="39" from-port="0" to-layer="40" to-port="0" />
		<edge from-layer="40" from-port="1" to-layer="41" to-port="1" />
		<edge from-layer="41" from-port="2" to-layer="42" to-port="0" />
		<edge from-layer="42" from-port="1" to-layer="45" to-port="0" />
		<edge from-layer="43" from-port="0" to-layer="44" to-port="0" />
		<edge from-layer="44" from-port="1" to-layer="45" to-port="1" />
		<edge from-layer="45" from-port="2" to-layer="48" to-port="0" />
		<edge from-layer="46" from-port="0" to-layer="47" to-port="0" />
		<edge from-layer="47" from-port="1" to-layer="48" to-port="1" />
		<edge from-layer="48" from-port="2" to-layer="49" to-port="0" />
		<edge from-layer="49" from-port="1" to-layer="52" to-port="0" />
		<edge from-layer="50" from-port="0" to-layer="51" to-port="0" />
		<edge from-layer="51" from-port="1" to-layer="52" to-port="1" />
		<edge from-layer="52" from-port="2" to-layer="55" to-port="0" />
		<edge from-layer="53" from-port="0" to-layer="54" to-port="0" />
		<edge from-layer="54" from-port="1" to-layer="55" to-port="1" />
		<edge from-layer="55" from-port="2" to-layer="56" to-port="0" />
		<edge from-layer="56" from-port="1" to-layer="59" to-port="0" />
		<edge from-layer="57" from-port="0" to-layer="58" to-port="0" />
		<edge from-layer="58" from-port="1" to-layer="59" to-port="1" />
		<edge from-layer="59" from-port="2" to-layer="62" to-port="0" />
		<edge from-layer="60" from-port="0" to-layer="61" to-port="0" />
		<edge from-layer="61" from-port="1" to-layer="62" to-port="1" />
		<edge from-layer="62" from-port="2" to-layer="63" to-port="0" />
		<edge from-layer="63" from-port="1" to-layer="66" to-port="0" />
		<edge from-layer="64" from-port="0" to-layer="65" to-port="0" />
		<edge from-layer="65" from-port="1" to-layer="66" to-port="1" />
		<edge from-layer="66" from-port="2" to-layer="69" to-port="0" />
		<edge from-layer="67" from-port="0" to-layer="68" to-port="0" />
		<edge from-layer="68" from-port="1" to-layer="69" to-port="1" />
		<edge from-layer="69" from-port="2" to-layer="70" to-port="0" />
		<edge from-layer="70" from-port="1" to-layer="73" to-port="0" />
		<edge from-layer="71" from-port="0" to-layer="72" to-port="0" />
		<edge from-layer="72" from-port="1" to-layer="73" to-port="1" />
		<edge from-layer="73" from-port="2" to-layer="76" to-port="0" />
		<edge from-layer="74" from-port="0" to-layer="75" to-port="0" />
		<edge from-layer="75" from-port="1" to-layer="76" to-port="1" />
		<edge from-layer="76" from-port="2" to-layer="77" to-port="0" />
		<edge from-layer="77" from-port="1" to-layer="80" to-port="0" />
		<edge from-layer="78" from-port="0" to-layer="79" to-port="0" />
		<edge from-layer="79" from-port="1" to-layer="80" to-port="1" />
		<edge from-layer="80" from-port="2" to-layer="83" to-port="0" />
		<edge from-layer="81" from-port="0" to-layer="82" to-port="0" />
		<edge from-layer="82" from-port="1" to-layer="83" to-port="1" />
		<edge from-layer="83" from-port="2" to-layer="84" to-port="0" />
		<edge from-layer="84" from-port="1" to-layer="87" to-port="0" />
		<edge from-layer="85" from-port="0" to-layer="86" to-port="0" />
		<edge from-layer="86" from-port="1" to-layer="87" to-port="1" />
		<edge from-layer="87" from-port="2" to-layer="90" to-port="0" />
		<edge from-layer="88" from-port="0" to-layer="89" to-port="0" />
		<edge from-layer="89" from-port="1" to-layer="90" to-port="1" />
		<edge from-layer="90" from-port="2" to-layer="91" to-port="0" />
		<edge from-layer="91" from-port="1" to-layer="94" to-port="0" />
		<edge from-layer="92" from-port="0" to-layer="93" to-port="0" />
		<edge from-layer="93" from-port="1" to-layer="94" to-port="1" />
		<edge from-layer="94" from-port="2" to-layer="97" to-port="0" />
		<edge from-layer="95" from-port="0" to-layer="96" to-port="0" />
		<edge from-layer="96" from-port="1" to-layer="97" to-port="1" />
		<edge from-layer="97" from-port="2" to-layer="98" to-port="0" />
		<edge from-layer="98" from-port="1" to-layer="101" to-port="0" />
		<edge from-layer="99" from-port="0" to-layer="100" to-port="0" />
		<edge from-layer="100" from-port="1" to-layer="101" to-port="1" />
		<edge from-layer="101" from-port="2" to-layer="104" to-port="0" />
		<edge from-layer="102" from-port="0" to-layer="103" to-port="0" />
		<edge from-layer="103" from-port="1" to-layer="104" to-port="1" />
		<edge from-layer="104" from-port="2" to-layer="105" to-port="0" />
		<edge from-layer="105" from-port="1" to-layer="108" to-port="0" />
		<edge from-layer="106" from-port="0" to-layer="107" to-port="0" />
		<edge from-layer="107" from-port="1" to-layer="108" to-port="1" />
		<edge from-layer="108" from-port="2" to-layer="111" to-port="0" />
		<edge from-layer="109" from-port="0" to-layer="110" to-port="0" />
		<edge from-layer="110" from-port="1" to-layer="111" to-port="1" />
		<edge from-layer="111" from-port="2" to-layer="112" to-port="0" />
		<edge from-layer="112" from-port="1" to-layer="115" to-port="0" />
		<edge from-layer="113" from-port="0" to-layer="114" to-port="0" />
		<edge from-layer="114" from-port="1" to-layer="115" to-port="1" />
		<edge from-layer="115" from-port="2" to-layer="118" to-port="0" />
		<edge from-layer="116" from-port="0" to-layer="117" to-port="0" />
		<edge from-layer="117" from-port="1" to-layer="118" to-port="1" />
		<edge from-layer="118" from-port="2" to-layer="119" to-port="0" />
		<edge from-layer="119" from-port="1" to-layer="122" to-port="0" />
		<edge from-layer="120" from-port="0" to-layer="121" to-port="0" />
		<edge from-layer="121" from-port="1" to-layer="122" to-port="1" />
		<edge from-layer="122" from-port="2" to-layer="125" to-port="0" />
		<edge from-layer="123" from-port="0" to-layer="124" to-port="0" />
		<edge from-layer="124" from-port="1" to-layer="125" to-port="1" />
		<edge from-layer="125" from-port="2" to-layer="126" to-port="0" />
		<edge from-layer="126" from-port="1" to-layer="129" to-port="0" />
		<edge from-layer="127" from-port="0" to-layer="128" to-port="0" />
		<edge from-layer="128" from-port="1" to-layer="129" to-port="1" />
		<edge from-layer="129" from-port="2" to-layer="132" to-port="0" />
		<edge from-layer="130" from-port="0" to-layer="131" to-port="0" />
		<edge from-layer="131" from-port="1" to-layer="132" to-port="1" />
		<edge from-layer="132" from-port="2" to-layer="133" to-port="0" />
		<edge from-layer="133" from-port="1" to-layer="136" to-port="0" />
		<edge from-layer="134" from-port="0" to-layer="135" to-port="0" />
		<edge from-layer="135" from-port="1" to-layer="136" to-port="1" />
		<edge from-layer="136" from-port="2" to-layer="139" to-port="0" />
		<edge from-layer="137" from-port="0" to-layer="138" to-port="0" />
		<edge from-layer="138" from-port="1" to-layer="139" to-port="1" />
		<edge from-layer="139" from-port="2" to-layer="140" to-port="0" />
		<edge from-layer="140" from-port="1" to-layer="143" to-port="0" />
		<edge from-layer="141" from-port="0" to-layer="142" to-port="0" />
		<edge from-layer="142" from-port="1" to-layer="143" to-port="1" />
		<edge from-layer="143" from-port="2" to-layer="146" to-port="0" />
		<edge from-layer="144" from-port="0" to-layer="145" to-port="0" />
		<edge from-layer="145" from-port="1" to-layer="146" to-port="1" />
		<edge from-layer="146" from-port="2" to-layer="147" to-port="0" />
		<edge from-layer="147" from-port="1" to-layer="150" to-port="0" />
		<edge from-layer="148" from-port="0" to-layer="149" to-port="0" />
		<edge from-layer="149" from-port="1" to-layer="150" to-port="1" />
		<edge from-layer="150" from-port="2" to-layer="153" to-port="0" />
		<edge from-layer="151" from-port="0" to-layer="152" to-port="0" />
		<edge from-layer="152" from-port="1" to-layer="153" to-port="1" />
		<edge from-layer="153" from-port="2" to-layer="154" to-port="0" />
		<edge from-layer="154" from-port="1" to-layer="157" to-port="0" />
		<edge from-layer="155" from-port="0" to-layer="156" to-port="0" />
		<edge from-layer="156" from-port="1" to-layer="157" to-port="1" />
		<edge from-layer="157" from-port="2" to-layer="160" to-port="0" />
		<edge from-layer="158" from-port="0" to-layer="159" to-port="0" />
		<edge from-layer="159" from-port="1" to-layer="160" to-port="1" />
		<edge from-layer="160" from-port="2" to-layer="161" to-port="0" />
		<edge from-layer="161" from-port="1" to-layer="164" to-port="0" />
		<edge from-layer="162" from-port="0" to-layer="163" to-port="0" />
		<edge from-layer="163" from-port="1" to-layer="164" to-port="1" />
		<edge from-layer="164" from-port="2" to-layer="167" to-port="0" />
		<edge from-layer="165" from-port="0" to-layer="166" to-port="0" />
		<edge from-layer="166" from-port="1" to-layer="167" to-port="1" />
		<edge from-layer="167" from-port="2" to-layer="168" to-port="0" />
		<edge from-layer="168" from-port="1" to-layer="171" to-port="0" />
		<edge from-layer="169" from-port="0" to-layer="170" to-port="0" />
		<edge from-layer="170" from-port="1" to-layer="171" to-port="1" />
		<edge from-layer="171" from-port="2" to-layer="173" to-port="0" />
		<edge from-layer="171" from-port="2" to-layer="192" to-port="0" />
		<edge from-layer="172" from-port="0" to-layer="173" to-port="1" />
		<edge from-layer="173" from-port="2" to-layer="176" to-port="0" />
		<edge from-layer="174" from-port="0" to-layer="175" to-port="0" />
		<edge from-layer="175" from-port="1" to-layer="176" to-port="1" />
		<edge from-layer="176" from-port="2" to-layer="179" to-port="0" />
		<edge from-layer="177" from-port="0" to-layer="178" to-port="0" />
		<edge from-layer="178" from-port="1" to-layer="179" to-port="1" />
		<edge from-layer="179" from-port="2" to-layer="180" to-port="0" />
		<edge from-layer="180" from-port="1" to-layer="183" to-port="0" />
		<edge from-layer="181" from-port="0" to-layer="182" to-port="0" />
		<edge from-layer="182" from-port="1" to-layer="183" to-port="1" />
		<edge from-layer="183" from-port="2" to-layer="186" to-port="0" />
		<edge from-layer="184" from-port="0" to-layer="185" to-port="0" />
		<edge from-layer="185" from-port="1" to-layer="186" to-port="1" />
		<edge from-layer="186" from-port="2" to-layer="191" to-port="0" />
		<edge from-layer="187" from-port="0" to-layer="188" to-port="0" />
		<edge from-layer="188" from-port="1" to-layer="191" to-port="1" />
		<edge from-layer="189" from-port="0" to-layer="190" to-port="0" />
		<edge from-layer="190" from-port="1" to-layer="191" to-port="2" />
		<edge from-layer="191" from-port="3" to-layer="192" to-port="1" />
		<edge from-layer="192" from-port="2" to-layer="195" to-port="0" />
		<edge from-layer="193" from-port="0" to-layer="194" to-port="0" />
		<edge from-layer="194" from-port="1" to-layer="195" to-port="1" />
		<edge from-layer="195" from-port="2" to-layer="198" to-port="0" />
		<edge from-layer="196" from-port="0" to-layer="197" to-port="0" />
		<edge from-layer="197" from-port="1" to-layer="198" to-port="1" />
		<edge from-layer="198" from-port="2" to-layer="199" to-port="0" />
		<edge from-layer="199" from-port="1" to-layer="202" to-port="0" />
		<edge from-layer="200" from-port="0" to-layer="201" to-port="0" />
		<edge from-layer="201" from-port="1" to-layer="202" to-port="1" />
		<edge from-layer="202" from-port="2" to-layer="205" to-port="0" />
		<edge from-layer="203" from-port="0" to-layer="204" to-port="0" />
		<edge from-layer="204" from-port="1" to-layer="205" to-port="1" />
		<edge from-layer="205" from-port="2" to-layer="206" to-port="0" />
		<edge from-layer="206" from-port="1" to-layer="209" to-port="0" />
		<edge from-layer="207" from-port="0" to-layer="208" to-port="0" />
		<edge from-layer="208" from-port="1" to-layer="209" to-port="1" />
		<edge from-layer="209" from-port="2" to-layer="211" to-port="0" />
		<edge from-layer="209" from-port="2" to-layer="230" to-port="0" />
		<edge from-layer="210" from-port="0" to-layer="211" to-port="1" />
		<edge from-layer="211" from-port="2" to-layer="214" to-port="0" />
		<edge from-layer="212" from-port="0" to-layer="213" to-port="0" />
		<edge from-layer="213" from-port="1" to-layer="214" to-port="1" />
		<edge from-layer="214" from-port="2" to-layer="217" to-port="0" />
		<edge from-layer="215" from-port="0" to-layer="216" to-port="0" />
		<edge from-layer="216" from-port="1" to-layer="217" to-port="1" />
		<edge from-layer="217" from-port="2" to-layer="218" to-port="0" />
		<edge from-layer="218" from-port="1" to-layer="221" to-port="0" />
		<edge from-layer="219" from-port="0" to-layer="220" to-port="0" />
		<edge from-layer="220" from-port="1" to-layer="221" to-port="1" />
		<edge from-layer="221" from-port="2" to-layer="224" to-port="0" />
		<edge from-layer="222" from-port="0" to-layer="223" to-port="0" />
		<edge from-layer="223" from-port="1" to-layer="224" to-port="1" />
		<edge from-layer="224" from-port="2" to-layer="229" to-port="0" />
		<edge from-layer="225" from-port="0" to-layer="226" to-port="0" />
		<edge from-layer="226" from-port="1" to-layer="229" to-port="1" />
		<edge from-layer="227" from-port="0" to-layer="228" to-port="0" />
		<edge from-layer="228" from-port="1" to-layer="229" to-port="2" />
		<edge from-layer="229" from-port="3" to-layer="230" to-port="1" />
		<edge from-layer="230" from-port="2" to-layer="233" to-port="0" />
		<edge from-layer="231" from-port="0" to-layer="232" to-port="0" />
		<edge from-layer="232" from-port="1" to-layer="233" to-port="1" />
		<edge from-layer="233" from-port="2" to-layer="236" to-port="0" />
		<edge from-layer="234" from-port="0" to-layer="235" to-port="0" />
		<edge from-layer="235" from-port="1" to-layer="236" to-port="1" />
		<edge from-layer="236" from-port="2" to-layer="237" to-port="0" />
		<edge from-layer="237" from-port="1" to-layer="240" to-port="0" />
		<edge from-layer="238" from-port="0" to-layer="239" to-port="0" />
		<edge from-layer="239" from-port="1" to-layer="240" to-port="1" />
		<edge from-layer="240" from-port="2" to-layer="241" to-port="0" />
		<edge from-layer="241" from-port="1" to-layer="244" to-port="0" />
		<edge from-layer="241" from-port="1" to-layer="494" to-port="0" />
		<edge from-layer="242" from-port="0" to-layer="243" to-port="0" />
		<edge from-layer="243" from-port="1" to-layer="244" to-port="1" />
		<edge from-layer="244" from-port="2" to-layer="247" to-port="0" />
		<edge from-layer="245" from-port="0" to-layer="246" to-port="0" />
		<edge from-layer="246" from-port="1" to-layer="247" to-port="1" />
		<edge from-layer="247" from-port="2" to-layer="248" to-port="0" />
		<edge from-layer="248" from-port="1" to-layer="251" to-port="0" />
		<edge from-layer="249" from-port="0" to-layer="250" to-port="0" />
		<edge from-layer="250" from-port="1" to-layer="251" to-port="1" />
		<edge from-layer="251" from-port="2" to-layer="254" to-port="0" />
		<edge from-layer="252" from-port="0" to-layer="253" to-port="0" />
		<edge from-layer="253" from-port="1" to-layer="254" to-port="1" />
		<edge from-layer="254" from-port="2" to-layer="255" to-port="0" />
		<edge from-layer="255" from-port="1" to-layer="256" to-port="0" />
		<edge from-layer="255" from-port="1" to-layer="263" to-port="0" />
		<edge from-layer="256" from-port="1" to-layer="260" to-port="0" />
		<edge from-layer="256" from-port="1" to-layer="476" to-port="0" />
		<edge from-layer="257" from-port="0" to-layer="260" to-port="1" />
		<edge from-layer="258" from-port="0" to-layer="260" to-port="2" />
		<edge from-layer="259" from-port="0" to-layer="260" to-port="3" />
		<edge from-layer="260" from-port="4" to-layer="262" to-port="0" />
		<edge from-layer="261" from-port="0" to-layer="262" to-port="1" />
		<edge from-layer="262" from-port="2" to-layer="263" to-port="1" />
		<edge from-layer="263" from-port="2" to-layer="265" to-port="0" />
		<edge from-layer="264" from-port="0" to-layer="265" to-port="1" />
		<edge from-layer="265" from-port="2" to-layer="267" to-port="0" />
		<edge from-layer="265" from-port="2" to-layer="343" to-port="0" />
		<edge from-layer="266" from-port="0" to-layer="267" to-port="1" />
		<edge from-layer="267" from-port="2" to-layer="270" to-port="0" />
		<edge from-layer="268" from-port="0" to-layer="269" to-port="0" />
		<edge from-layer="269" from-port="1" to-layer="270" to-port="1" />
		<edge from-layer="270" from-port="2" to-layer="273" to-port="0" />
		<edge from-layer="271" from-port="0" to-layer="272" to-port="0" />
		<edge from-layer="272" from-port="1" to-layer="273" to-port="1" />
		<edge from-layer="273" from-port="2" to-layer="276" to-port="0" />
		<edge from-layer="273" from-port="2" to-layer="281" to-port="0" />
		<edge from-layer="274" from-port="0" to-layer="275" to-port="0" />
		<edge from-layer="275" from-port="1" to-layer="276" to-port="1" />
		<edge from-layer="276" from-port="2" to-layer="279" to-port="0" />
		<edge from-layer="277" from-port="0" to-layer="278" to-port="0" />
		<edge from-layer="278" from-port="1" to-layer="279" to-port="1" />
		<edge from-layer="279" from-port="2" to-layer="292" to-port="0" />
		<edge from-layer="280" from-port="0" to-layer="291" to-port="0" />
		<edge from-layer="281" from-port="1" to-layer="282" to-port="0" />
		<edge from-layer="282" from-port="1" to-layer="286" to-port="0" />
		<edge from-layer="283" from-port="0" to-layer="286" to-port="1" />
		<edge from-layer="284" from-port="0" to-layer="286" to-port="2" />
		<edge from-layer="285" from-port="0" to-layer="286" to-port="3" />
		<edge from-layer="286" from-port="4" to-layer="333" to-port="0" />
		<edge from-layer="286" from-port="4" to-layer="287" to-port="0" />
		<edge from-layer="287" from-port="1" to-layer="291" to-port="1" />
		<edge from-layer="288" from-port="0" to-layer="291" to-port="2" />
		<edge from-layer="289" from-port="0" to-layer="291" to-port="3" />
		<edge from-layer="290" from-port="0" to-layer="291" to-port="4" />
		<edge from-layer="291" from-port="5" to-layer="292" to-port="1" />
		<edge from-layer="292" from-port="2" to-layer="294" to-port="0" />
		<edge from-layer="293" from-port="0" to-layer="294" to-port="1" />
		<edge from-layer="294" from-port="2" to-layer="298" to-port="0" />
		<edge from-layer="294" from-port="2" to-layer="326" to-port="0" />
		<edge from-layer="294" from-port="2" to-layer="307" to-port="0" />
		<edge from-layer="295" from-port="0" to-layer="298" to-port="1" />
		<edge from-layer="296" from-port="0" to-layer="298" to-port="2" />
		<edge from-layer="297" from-port="0" to-layer="298" to-port="3" />
		<edge from-layer="298" from-port="4" to-layer="300" to-port="0" />
		<edge from-layer="299" from-port="0" to-layer="300" to-port="1" />
		<edge from-layer="300" from-port="2" to-layer="303" to-port="0" />
		<edge from-layer="301" from-port="0" to-layer="302" to-port="0" />
		<edge from-layer="302" from-port="1" to-layer="303" to-port="1" />
		<edge from-layer="303" from-port="2" to-layer="310" to-port="0" />
		<edge from-layer="304" from-port="0" to-layer="307" to-port="1" />
		<edge from-layer="305" from-port="0" to-layer="307" to-port="2" />
		<edge from-layer="306" from-port="0" to-layer="307" to-port="3" />
		<edge from-layer="307" from-port="4" to-layer="309" to-port="0" />
		<edge from-layer="308" from-port="0" to-layer="309" to-port="1" />
		<edge from-layer="309" from-port="2" to-layer="310" to-port="1" />
		<edge from-layer="310" from-port="2" to-layer="311" to-port="0" />
		<edge from-layer="310" from-port="2" to-layer="320" to-port="0" />
		<edge from-layer="311" from-port="1" to-layer="315" to-port="0" />
		<edge from-layer="311" from-port="1" to-layer="322" to-port="1" />
		<edge from-layer="312" from-port="0" to-layer="315" to-port="1" />
		<edge from-layer="313" from-port="0" to-layer="315" to-port="2" />
		<edge from-layer="314" from-port="0" to-layer="315" to-port="3" />
		<edge from-layer="315" from-port="4" to-layer="317" to-port="0" />
		<edge from-layer="316" from-port="0" to-layer="317" to-port="1" />
		<edge from-layer="317" from-port="2" to-layer="319" to-port="0" />
		<edge from-layer="318" from-port="0" to-layer="319" to-port="1" />
		<edge from-layer="319" from-port="2" to-layer="320" to-port="1" />
		<edge from-layer="320" from-port="2" to-layer="321" to-port="0" />
		<edge from-layer="321" from-port="1" to-layer="322" to-port="0" />
		<edge from-layer="322" from-port="2" to-layer="329" to-port="0" />
		<edge from-layer="323" from-port="0" to-layer="326" to-port="1" />
		<edge from-layer="324" from-port="0" to-layer="326" to-port="2" />
		<edge from-layer="325" from-port="0" to-layer="326" to-port="3" />
		<edge from-layer="326" from-port="4" to-layer="328" to-port="0" />
		<edge from-layer="327" from-port="0" to-layer="328" to-port="1" />
		<edge from-layer="328" from-port="2" to-layer="329" to-port="1" />
		<edge from-layer="329" from-port="2" to-layer="331" to-port="0" />
		<edge from-layer="330" from-port="0" to-layer="331" to-port="1" />
		<edge from-layer="331" from-port="2" to-layer="336" to-port="0" />
		<edge from-layer="332" from-port="0" to-layer="335" to-port="0" />
		<edge from-layer="333" from-port="1" to-layer="335" to-port="1" />
		<edge from-layer="334" from-port="0" to-layer="335" to-port="2" />
		<edge from-layer="335" from-port="3" to-layer="336" to-port="1" />
		<edge from-layer="336" from-port="2" to-layer="339" to-port="0" />
		<edge from-layer="337" from-port="0" to-layer="338" to-port="0" />
		<edge from-layer="338" from-port="1" to-layer="339" to-port="1" />
		<edge from-layer="339" from-port="2" to-layer="342" to-port="0" />
		<edge from-layer="340" from-port="0" to-layer="341" to-port="0" />
		<edge from-layer="341" from-port="1" to-layer="342" to-port="1" />
		<edge from-layer="342" from-port="2" to-layer="343" to-port="1" />
		<edge from-layer="343" from-port="2" to-layer="345" to-port="0" />
		<edge from-layer="343" from-port="2" to-layer="365" to-port="0" />
		<edge from-layer="344" from-port="0" to-layer="345" to-port="1" />
		<edge from-layer="345" from-port="2" to-layer="348" to-port="0" />
		<edge from-layer="346" from-port="0" to-layer="347" to-port="0" />
		<edge from-layer="347" from-port="1" to-layer="348" to-port="1" />
		<edge from-layer="348" from-port="2" to-layer="351" to-port="0" />
		<edge from-layer="349" from-port="0" to-layer="350" to-port="0" />
		<edge from-layer="350" from-port="1" to-layer="351" to-port="1" />
		<edge from-layer="351" from-port="2" to-layer="354" to-port="0" />
		<edge from-layer="352" from-port="0" to-layer="353" to-port="0" />
		<edge from-layer="353" from-port="1" to-layer="354" to-port="1" />
		<edge from-layer="354" from-port="2" to-layer="357" to-port="0" />
		<edge from-layer="355" from-port="0" to-layer="356" to-port="0" />
		<edge from-layer="356" from-port="1" to-layer="357" to-port="1" />
		<edge from-layer="357" from-port="2" to-layer="358" to-port="0" />
		<edge from-layer="358" from-port="1" to-layer="361" to-port="0" />
		<edge from-layer="359" from-port="0" to-layer="360" to-port="0" />
		<edge from-layer="360" from-port="1" to-layer="361" to-port="1" />
		<edge from-layer="361" from-port="2" to-layer="364" to-port="0" />
		<edge from-layer="362" from-port="0" to-layer="363" to-port="0" />
		<edge from-layer="363" from-port="1" to-layer="364" to-port="1" />
		<edge from-layer="364" from-port="2" to-layer="365" to-port="1" />
		<edge from-layer="365" from-port="2" to-layer="443" to-port="0" />
		<edge from-layer="365" from-port="2" to-layer="367" to-port="0" />
		<edge from-layer="366" from-port="0" to-layer="367" to-port="1" />
		<edge from-layer="367" from-port="2" to-layer="370" to-port="0" />
		<edge from-layer="368" from-port="0" to-layer="369" to-port="0" />
		<edge from-layer="369" from-port="1" to-layer="370" to-port="1" />
		<edge from-layer="370" from-port="2" to-layer="373" to-port="0" />
		<edge from-layer="371" from-port="0" to-layer="372" to-port="0" />
		<edge from-layer="372" from-port="1" to-layer="373" to-port="1" />
		<edge from-layer="373" from-port="2" to-layer="381" to-port="0" />
		<edge from-layer="373" from-port="2" to-layer="376" to-port="0" />
		<edge from-layer="374" from-port="0" to-layer="375" to-port="0" />
		<edge from-layer="375" from-port="1" to-layer="376" to-port="1" />
		<edge from-layer="376" from-port="2" to-layer="379" to-port="0" />
		<edge from-layer="377" from-port="0" to-layer="378" to-port="0" />
		<edge from-layer="378" from-port="1" to-layer="379" to-port="1" />
		<edge from-layer="379" from-port="2" to-layer="392" to-port="0" />
		<edge from-layer="380" from-port="0" to-layer="391" to-port="0" />
		<edge from-layer="381" from-port="1" to-layer="382" to-port="0" />
		<edge from-layer="382" from-port="1" to-layer="386" to-port="0" />
		<edge from-layer="383" from-port="0" to-layer="386" to-port="1" />
		<edge from-layer="384" from-port="0" to-layer="386" to-port="2" />
		<edge from-layer="385" from-port="0" to-layer="386" to-port="3" />
		<edge from-layer="386" from-port="4" to-layer="387" to-port="0" />
		<edge from-layer="386" from-port="4" to-layer="433" to-port="0" />
		<edge from-layer="387" from-port="1" to-layer="391" to-port="1" />
		<edge from-layer="388" from-port="0" to-layer="391" to-port="2" />
		<edge from-layer="389" from-port="0" to-layer="391" to-port="3" />
		<edge from-layer="390" from-port="0" to-layer="391" to-port="4" />
		<edge from-layer="391" from-port="5" to-layer="392" to-port="1" />
		<edge from-layer="392" from-port="2" to-layer="394" to-port="0" />
		<edge from-layer="393" from-port="0" to-layer="394" to-port="1" />
		<edge from-layer="394" from-port="2" to-layer="426" to-port="0" />
		<edge from-layer="394" from-port="2" to-layer="407" to-port="0" />
		<edge from-layer="394" from-port="2" to-layer="398" to-port="0" />
		<edge from-layer="395" from-port="0" to-layer="398" to-port="1" />
		<edge from-layer="396" from-port="0" to-layer="398" to-port="2" />
		<edge from-layer="397" from-port="0" to-layer="398" to-port="3" />
		<edge from-layer="398" from-port="4" to-layer="400" to-port="0" />
		<edge from-layer="399" from-port="0" to-layer="400" to-port="1" />
		<edge from-layer="400" from-port="2" to-layer="403" to-port="0" />
		<edge from-layer="401" from-port="0" to-layer="402" to-port="0" />
		<edge from-layer="402" from-port="1" to-layer="403" to-port="1" />
		<edge from-layer="403" from-port="2" to-layer="410" to-port="0" />
		<edge from-layer="404" from-port="0" to-layer="407" to-port="1" />
		<edge from-layer="405" from-port="0" to-layer="407" to-port="2" />
		<edge from-layer="406" from-port="0" to-layer="407" to-port="3" />
		<edge from-layer="407" from-port="4" to-layer="409" to-port="0" />
		<edge from-layer="408" from-port="0" to-layer="409" to-port="1" />
		<edge from-layer="409" from-port="2" to-layer="410" to-port="1" />
		<edge from-layer="410" from-port="2" to-layer="411" to-port="0" />
		<edge from-layer="410" from-port="2" to-layer="420" to-port="0" />
		<edge from-layer="411" from-port="1" to-layer="415" to-port="0" />
		<edge from-layer="411" from-port="1" to-layer="422" to-port="1" />
		<edge from-layer="412" from-port="0" to-layer="415" to-port="1" />
		<edge from-layer="413" from-port="0" to-layer="415" to-port="2" />
		<edge from-layer="414" from-port="0" to-layer="415" to-port="3" />
		<edge from-layer="415" from-port="4" to-layer="417" to-port="0" />
		<edge from-layer="416" from-port="0" to-layer="417" to-port="1" />
		<edge from-layer="417" from-port="2" to-layer="419" to-port="0" />
		<edge from-layer="418" from-port="0" to-layer="419" to-port="1" />
		<edge from-layer="419" from-port="2" to-layer="420" to-port="1" />
		<edge from-layer="420" from-port="2" to-layer="421" to-port="0" />
		<edge from-layer="421" from-port="1" to-layer="422" to-port="0" />
		<edge from-layer="422" from-port="2" to-layer="429" to-port="0" />
		<edge from-layer="423" from-port="0" to-layer="426" to-port="1" />
		<edge from-layer="424" from-port="0" to-layer="426" to-port="2" />
		<edge from-layer="425" from-port="0" to-layer="426" to-port="3" />
		<edge from-layer="426" from-port="4" to-layer="428" to-port="0" />
		<edge from-layer="427" from-port="0" to-layer="428" to-port="1" />
		<edge from-layer="428" from-port="2" to-layer="429" to-port="1" />
		<edge from-layer="429" from-port="2" to-layer="431" to-port="0" />
		<edge from-layer="430" from-port="0" to-layer="431" to-port="1" />
		<edge from-layer="431" from-port="2" to-layer="436" to-port="0" />
		<edge from-layer="432" from-port="0" to-layer="435" to-port="0" />
		<edge from-layer="433" from-port="1" to-layer="435" to-port="1" />
		<edge from-layer="434" from-port="0" to-layer="435" to-port="2" />
		<edge from-layer="435" from-port="3" to-layer="436" to-port="1" />
		<edge from-layer="436" from-port="2" to-layer="439" to-port="0" />
		<edge from-layer="437" from-port="0" to-layer="438" to-port="0" />
		<edge from-layer="438" from-port="1" to-layer="439" to-port="1" />
		<edge from-layer="439" from-port="2" to-layer="442" to-port="0" />
		<edge from-layer="440" from-port="0" to-layer="441" to-port="0" />
		<edge from-layer="441" from-port="1" to-layer="442" to-port="1" />
		<edge from-layer="442" from-port="2" to-layer="443" to-port="1" />
		<edge from-layer="443" from-port="2" to-layer="445" to-port="0" />
		<edge from-layer="443" from-port="2" to-layer="465" to-port="0" />
		<edge from-layer="444" from-port="0" to-layer="445" to-port="1" />
		<edge from-layer="445" from-port="2" to-layer="448" to-port="0" />
		<edge from-layer="446" from-port="0" to-layer="447" to-port="0" />
		<edge from-layer="447" from-port="1" to-layer="448" to-port="1" />
		<edge from-layer="448" from-port="2" to-layer="451" to-port="0" />
		<edge from-layer="449" from-port="0" to-layer="450" to-port="0" />
		<edge from-layer="450" from-port="1" to-layer="451" to-port="1" />
		<edge from-layer="451" from-port="2" to-layer="454" to-port="0" />
		<edge from-layer="452" from-port="0" to-layer="453" to-port="0" />
		<edge from-layer="453" from-port="1" to-layer="454" to-port="1" />
		<edge from-layer="454" from-port="2" to-layer="457" to-port="0" />
		<edge from-layer="455" from-port="0" to-layer="456" to-port="0" />
		<edge from-layer="456" from-port="1" to-layer="457" to-port="1" />
		<edge from-layer="457" from-port="2" to-layer="458" to-port="0" />
		<edge from-layer="458" from-port="1" to-layer="461" to-port="0" />
		<edge from-layer="459" from-port="0" to-layer="460" to-port="0" />
		<edge from-layer="460" from-port="1" to-layer="461" to-port="1" />
		<edge from-layer="461" from-port="2" to-layer="464" to-port="0" />
		<edge from-layer="462" from-port="0" to-layer="463" to-port="0" />
		<edge from-layer="463" from-port="1" to-layer="464" to-port="1" />
		<edge from-layer="464" from-port="2" to-layer="465" to-port="1" />
		<edge from-layer="465" from-port="2" to-layer="467" to-port="0" />
		<edge from-layer="466" from-port="0" to-layer="467" to-port="1" />
		<edge from-layer="467" from-port="2" to-layer="470" to-port="0" />
		<edge from-layer="468" from-port="0" to-layer="469" to-port="0" />
		<edge from-layer="469" from-port="1" to-layer="470" to-port="1" />
		<edge from-layer="470" from-port="2" to-layer="473" to-port="0" />
		<edge from-layer="471" from-port="0" to-layer="472" to-port="0" />
		<edge from-layer="472" from-port="1" to-layer="473" to-port="1" />
		<edge from-layer="473" from-port="2" to-layer="484" to-port="0" />
		<edge from-layer="474" from-port="0" to-layer="483" to-port="0" />
		<edge from-layer="475" from-port="0" to-layer="483" to-port="1" />
		<edge from-layer="476" from-port="1" to-layer="480" to-port="0" />
		<edge from-layer="477" from-port="0" to-layer="480" to-port="1" />
		<edge from-layer="478" from-port="0" to-layer="480" to-port="2" />
		<edge from-layer="479" from-port="0" to-layer="480" to-port="3" />
		<edge from-layer="480" from-port="4" to-layer="481" to-port="0" />
		<edge from-layer="481" from-port="1" to-layer="483" to-port="2" />
		<edge from-layer="482" from-port="0" to-layer="483" to-port="3" />
		<edge from-layer="483" from-port="4" to-layer="484" to-port="1" />
		<edge from-layer="484" from-port="2" to-layer="486" to-port="0" />
		<edge from-layer="485" from-port="0" to-layer="486" to-port="1" />
		<edge from-layer="486" from-port="2" to-layer="489" to-port="0" />
		<edge from-layer="487" from-port="0" to-layer="488" to-port="0" />
		<edge from-layer="488" from-port="1" to-layer="489" to-port="1" />
		<edge from-layer="489" from-port="2" to-layer="492" to-port="0" />
		<edge from-layer="490" from-port="0" to-layer="491" to-port="0" />
		<edge from-layer="491" from-port="1" to-layer="492" to-port="1" />
		<edge from-layer="492" from-port="2" to-layer="493" to-port="0" />
		<edge from-layer="493" from-port="1" to-layer="494" to-port="1" />
		<edge from-layer="494" from-port="2" to-layer="497" to-port="0" />
		<edge from-layer="495" from-port="0" to-layer="496" to-port="0" />
		<edge from-layer="496" from-port="1" to-layer="497" to-port="1" />
		<edge from-layer="497" from-port="2" to-layer="500" to-port="0" />
		<edge from-layer="498" from-port="0" to-layer="499" to-port="0" />
		<edge from-layer="499" from-port="1" to-layer="500" to-port="1" />
		<edge from-layer="500" from-port="2" to-layer="501" to-port="0" />
		<edge from-layer="501" from-port="1" to-layer="504" to-port="0" />
		<edge from-layer="502" from-port="0" to-layer="503" to-port="0" />
		<edge from-layer="503" from-port="1" to-layer="504" to-port="1" />
		<edge from-layer="504" from-port="2" to-layer="507" to-port="0" />
		<edge from-layer="505" from-port="0" to-layer="506" to-port="0" />
		<edge from-layer="506" from-port="1" to-layer="507" to-port="1" />
		<edge from-layer="507" from-port="2" to-layer="508" to-port="0" />
		<edge from-layer="508" from-port="1" to-layer="510" to-port="0" />
		<edge from-layer="509" from-port="0" to-layer="510" to-port="1" />
		<edge from-layer="510" from-port="2" to-layer="513" to-port="0" />
		<edge from-layer="511" from-port="0" to-layer="512" to-port="0" />
		<edge from-layer="512" from-port="1" to-layer="513" to-port="1" />
		<edge from-layer="513" from-port="2" to-layer="516" to-port="0" />
		<edge from-layer="514" from-port="0" to-layer="515" to-port="0" />
		<edge from-layer="515" from-port="1" to-layer="516" to-port="1" />
		<edge from-layer="516" from-port="2" to-layer="517" to-port="0" />
		<edge from-layer="516" from-port="2" to-layer="526" to-port="0" />
		<edge from-layer="517" from-port="1" to-layer="521" to-port="0" />
		<edge from-layer="517" from-port="1" to-layer="528" to-port="1" />
		<edge from-layer="518" from-port="0" to-layer="521" to-port="1" />
		<edge from-layer="519" from-port="0" to-layer="521" to-port="2" />
		<edge from-layer="520" from-port="0" to-layer="521" to-port="3" />
		<edge from-layer="521" from-port="4" to-layer="523" to-port="0" />
		<edge from-layer="522" from-port="0" to-layer="523" to-port="1" />
		<edge from-layer="523" from-port="2" to-layer="525" to-port="0" />
		<edge from-layer="524" from-port="0" to-layer="525" to-port="1" />
		<edge from-layer="525" from-port="2" to-layer="526" to-port="1" />
		<edge from-layer="526" from-port="2" to-layer="527" to-port="0" />
		<edge from-layer="527" from-port="1" to-layer="528" to-port="0" />
		<edge from-layer="528" from-port="2" to-layer="529" to-port="0" />
	</edges>
	<rt_info>
		<MO_version value="2023.0.1-11005-fa1c41994f3-releases/2023/0" />
		<Runtime_version value="2023.0.1-11005-fa1c41994f3-releases/2023/0" />
		<conversion_parameters>
			<compress_to_fp16 value="True" />
			<input_model value="DIR/model.onnx" />
			<is_python_api_used value="False" />
			<model_name value="model_fp16" />
			<output_dir value="DIR" />
		</conversion_parameters>
		<legacy_frontend value="False" />
	</rt_info>
</net>
